py -- pytorch/models/mnist-image-ANN.pt (torch_old, 421899 bytes, 6 tensors)

fc1.weight f4 [120, 784]
00000000: 6ae4 8d3c 8e15 59bc 3032 f43b bf14 063d
00000010: 20b8 ddba 54ab 803c d078 71bb e0f8 ad3a
00000020: 30cc 823c 036f 03bd 2065 69bc 704c 85bc
00000030: b25e f73c 2482 043c a0ae a8bc 943f cfbb
00000040: d3ed 083d 9e1b e33c bab2 bdbc e4be fabb
00000050: 1f00 03bd 7e27 e43c 32ee 993c 5265 49bc
00000060: ae2f f6bc 40f0 183c 4095 bebb 80c5 dd3b
00000070: 163b e33c 2641 25bc 9363 dcbc a02a dfba
00000080: 5400 7e3c 37d8 6abc d783 40be 420b 283c
00000090: 0a2f 933b 6f5f d8bc 56d0 1ebe e18e 4abe
000000a0: 4760 68be 62a5 a6be 81d9 06be 963e 29be
000000b0: 3d27 55be 023f efbd cef5 2abe 5c0e 56be
000000c0: 51b8 5ebe 1602 fc3c cce0 b63c f359 9fbc
000000d0: 469c 67bc da4f b2bc e0cd 0e3b 98f3 943c
000000e0: 00d6 6dba 60a1 823c 6ae3 f4bc 9be3 e1bd
000000f0: d982 9abd be92 c2bc 55a5 f43c 49d4 0d3d
00000100: a798 86bc f54b 7ebe 9861 a6be 5e33 fcbd
00000110: 0c83 77be e0c5 71be b998 b7be 6084 d4be
00000120: 23a2 a6be 79f5 7abe 4319 a3bd 3b62 a63c
00000130: 1cc7 7b3c 0bfc ac3c be27 b2bc fa8f b23c
00000140: ea06 0fbd 5c75 6dbc ce6c b53c a65c ef3c
00000150: 4c41 ca3c 3acb babc 2a0f 5cbc b8cb eebd
00000160: 4a38 e7bd 59b6 d9bd 74d8 053c c665 603e
00000170: f995 ad3c a898 20be 39b2 18bf 37fb 3fbf
00000180: 84e3 28bf dacb fabe 311f cebe a24c f1be
00000190: 1242 0fbf 1fd8 69bd c672 343d 34ff 93be
000001a0: 27d3 54be cab4 27be 7c08 4bbe c441 8abe
000001b0: 0fce 40be 3160 7a3d 7447 803c dc33 943c
000001c0: 7bcd 05bd 1f5e 033d f85d 4fbc 90f6 8e3e
000001d0: 4ae9 96be 3ae7 cdbd 22f6 203e d330 97bd
000001e0: 14ce 27be 101c d5be c68e 39bf 3e85 1cbf
000001f0: fa8c 3fbe 6705 fc3d 2db3 9abe e4fd f6be
00000200: cc29 00bf 8b9e 3ebe 6a4d 63be f286 f8be
00000210: f736 ffbd 7c5d 24bf b83a 47bf 9909 cebe
00000220: 4f07 cdbe c0a6 9cbe 2180 0fbe 80b6 4b3a
00000230: 01ed 073d 6566 06bd 20ba a03c cb53 4c3d
00000240: 1c35 003c 8674 a7bc fcf5 fd3d c248 4cbe
00000250: 4071 7b3e 368c c33d 0379 84be 5826 8e3c
00000260: 9475 403e 783a 853e b0e2 a53c 6175 483d
00000270: 8531 123c fab2 0e3e 6dfd 8dbe f891 25bf
00000280: c747 c6be d7c8 41be 7912 5ebf 8ed8 6bbf
00000290: 7102 05bf 6ba0 98be ec54 06be 74ac 30bd
000002a0: 5054 27bb 1868 38bc c652 ab3e 6fd2 463e
000002b0: 3265 e93e 0dff 023f 5287 3b3e 1671 d1bc
000002c0: d86c d43e ddf5 a33e 0494 5d3e e5f6 143e
000002d0: c69f 863e ab55 183d 2e99 1cbe 86eb 97be
000002e0: 074e 9bbd 31b2 663d 512c 41be 0166 82bc
000002f0: 9fd1 4a3e 64d2 c63e cf34 a7be 388e 51bf
00000300: 0364 a5be c08e c2be 948d b9bd c814 9e39
00000310: 18f1 503c d995 2f3e eb22 d83e 18ad 073f
00000320: 3892 943e 9b54 793c 79f1 993e 14a0 c73e
00000330: 7d80 8b3e f92b ba3e 7535 133e bddf 823d
00000340: 79cd 4dbd d7e5 2bbe f1e4 36be 946c 4bbe
00000350: 0ee6 13bd 2229 f23b 98c9 1c3d dad1 33bd
00000360: 8163 713e ac40 9d3e e00c 023e 3e29 323e
00000370: b543 14be e871 dcbe d435 e8bd edc2 a5bc
00000380: 014f 7dbe 6dd2 053e 2a55 b73e 5671 583d
00000390: 6401 473d 14ba 0c3e 32b0 a93e 90af a73e
000003a0: 1e30 7d3e c8ed 3e3e 40ab 823e 100d 7e3d
000003b0: 8b95 cd3d a2d8 9fbd 15d2 e1bd 9409 babd
000003c0: 30ac 2a3d eee8 e93d 0a6d 543e 0f06 463e
000003d0: 3609 c13d ce6f fb3d 30d7 583e 17f7 0b3f
000003e0: 96e4 0c3d ffc1 1fbd afe5 26be 2112 ecbd
000003f0: 75e9 9a3e c034 b33e 9595 53be ff3e 93bd
0.01732083 -0.013249768 0.007452272 0.03273463 -0.0016915835 0.015706696 -0.0036845692 0.0013273023
0.015966505 -0.03208829 -0.0142453015 -0.0162718 0.030196521 0.008087669 -0.02059108 -0.006324718
0.03342993 0.02772313 -0.023156513 -0.0076521505 -0.031982537 0.027850863 0.018790338 -0.012292223
-0.030052032 0.009334624 -0.005816132 0.0067679286 0.027738135 -0.010086333 -0.02690295 -0.0017026253
0.015503008 -0.014333776 -0.18800293 0.01025659 0.0044916915 -0.026412694 -0.15509161 -0.19781066
-0.22692977 -0.32548052 -0.13168909 -0.16527781 -0.2081575 -0.1168194 -0.1669533 -0.20903915
-0.21749999 0.030762713 0.022323988 -0.01945207 -0.01413638 -0.021766592 0.0021790192 0.01818256
-0.0009072721 0.01594609 -0.029893596 -0.110297404 -0.075444885 -0.023751613 0.029863993 0.03462628
-0.016430212 -0.24833663 -0.32496333 -0.12314485 -0.24171084 -0.2361064 -0.35858706 -0.41507244
-0.32545575 -0.24507703 -0.07963803 0.020310512 0.015367296 0.021116277 -0.021747466 0.021797169
-0.034918703 -0.014493313 0.022146609 0.029218983 0.02468934 -0.022801984 -0.01343135 -0.1165995
-0.11290033 -0.10630483 0.008169282 0.21913823 0.021189677 -0.15683234 -0.59646946 -0.749927
-0.6597216 -0.4898365 -0.40258172 -0.4712878 -0.5596019 -0.057090875 0.04405477 -0.28905642
-0.20783673 -0.1637756 -0.19827455 -0.270033 -0.18828605 0.06112689 0.015659072 0.018091135
-0.032666665 0.032072183 -0.012656681 0.27922487 -0.2947486 -0.100538686 0.15718892 -0.07382359
-0.16387206 -0.41622972 -0.7248348 -0.6114081 -0.18706122 0.12305718 -0.30214825 -0.48240578
-0.50063777 -0.18615167 -0.221975 -0.48540455 -0.124616556 -0.64205146 -0.7782397 -0.40241697
-0.4004464 -0.3059597 -0.14013721 0.000777103 0.03318501 -0.032812495 0.019620001 0.0498846
0.007825162 -0.020441305 0.124004334 -0.1994963 0.2455492 0.095482275 -0.25873575 0.017352268
0.18794852 0.2602117 0.020249695 0.048940066 0.008922939 0.13935462 -0.2773241 -0.64675856
-0.38726637 -0.1892427 -0.8674694 -0.9212731 -0.5195685 -0.2980989 -0.13118333 -0.043133214
-0.0025532432 -0.011255287 0.3346159 0.19416212 0.45585018 0.51170427 0.1831334 -0.025566619
0.4148929 0.32023516 0.21638495 0.14547308 0.26293772 0.037191074 -0.15292808 -0.29671878
-0.07583242 0.05632228 -0.18864562 -0.01591778 0.19806527 0.3883239 -0.32657477 -0.81857634
-0.32302865 -0.37999535 -0.09060207 0.00030151592 0.012752794 0.17147006 0.4221414 0.52998495
0.29017806 0.015217925 0.30067042 0.38989317 0.27246466 0.36361673 0.14375861 0.06390331
-0.050244782 -0.16786896 -0.17860772 -0.19865638 -0.03610807 0.0073901573 0.038278192 -0.043901302
0.23573114 0.30713403 0.12700224 0.17398545 -0.14478953 -0.43055654 -0.11338392 -0.02023455
-0.24737169 0.13068552 0.35807163 0.05284246 0.04858531 0.13742858 0.3314224 0.3275113
0.24725387 0.18645394 0.25521278 0.062024176 0.10038289 -0.07804991 -0.11026398 -0.09083858
0.041668117 0.11421381 0.2074472 0.19338249 0.09425585 0.122771844 0.21175838 0.54673904
0.034397684 -0.03900337 -0.16298555 -0.11526895 0.3025624 0.35001183 -0.2066253 -0.0718975

fc1.bias f4 [120]
00000000: 9306 1d3e 695f e8bd eea5 893d 97fe 20bc
00000010: 4af5 a2be e7ae bfbe 286b 97bd e006 3dbd
00000020: 6e79 8b3e 05cf 1abe 8b61 b1bc c171 b93e
00000030: 52be bfbe 45e7 0ebe 6e9c 973e d65a 0cbd
00000040: f26d 49be e6b8 033d 50ed f73d f2c5 31bd
00000050: 81c4 40be 788b 0d3e 633b 4a3d 99fb 5bbd
00000060: 9c2e 89bd 5409 e63d 050d 01be 6ed5 793d
00000070: 2292 e23e 40f7 9cbd 5f83 bc3e a3d9 05be
00000080: cd43 cc3e e00b 3dbd f0ac 893e cf4e 99bd
00000090: 6345 443d c87c 69bd 7e23 7bbe fe6a c83d
000000a0: 4f9d 0a3e 3a58 1c3e 1fd7 54bd d486 f63c
000000b0: 9ed6 07be a336 02be 988c 8dbe e939 103e
000000c0: ec33 153c 4d6d 90be 5831 1ebe b791 4ebd
000000d0: 51d9 f53d 3f47 babc 1e41 33bc 0dc7 a7be
000000e0: e08f d6bd d872 96be 78f6 63bd ba24 353e
000000f0: c09c e53d 2d3c 003e 0517 e3bd a294 23bc
00000100: 221d 9a3d 2655 2fbe 8694 aabc 9dc0 1a3c
00000110: 0157 823e 720d 9d3e dee6 7fbe ced0 36be
00000120: d90b dabd 22de b5bd e1d3 cb3e a5ce afbe
00000130: bc5e 6a3c 4b1a 8bbd 9685 89be 77cd 053d
00000140: 03f4 52be e468 06be ee3b 083d 6be9 5bbe
00000150: a1f8 83bd acb2 7e3e 4844 b0be a646 44bd
00000160: 48e1 8dbd 3d46 203e 70c4 41bd db28 93bd
00000170: 78b6 debc 48ef 403e fc01 bb3d 86c0 81bc
00000180: f147 dc3c b4e8 19bd 68b1 943e 778e adbc
00000190: bd1e 89be 9111 4f3b 07e1 5cbd 990c 95bd
000001a0: 952d cfbd 44fc 1fbe 2e2e 66bd c8b0 83bd
000001b0: adff 83bc b073 aebe 030b bcbd aff8 9a3d
000001c0: 812b 8abd 3c3a a7bd 476e 0ebe b680 9dbe
000001d0: 47de 65bd 92b6 ae3e 2278 53bd b427 7cbd
0.15334539 -0.11346323 0.06721102 -0.009826324 -0.31827766 -0.37438127 -0.07393485 -0.046149135
0.2724108 -0.15118034 -0.021652957 0.362196 -0.3744989 -0.1395541 0.29611534 -0.034266315
-0.19670847 0.032158755 0.12105811 -0.043401666 -0.1882496 0.13822734 0.04937304 -0.05370674
-0.06698343 0.11232248 -0.12602623 0.060994558 0.44252115 -0.07664347 0.36818978 -0.13071303
0.39895478 -0.046153903 0.26889753 -0.07485735 0.047917735 -0.057003766 -0.24525258 0.09786032
0.13536571 0.15268031 -0.051962968 0.030093588 -0.13265464 -0.12716155 -0.27646327 0.14084591
0.009106617 -0.2820839 -0.1544851 -0.050431933 0.120043404 -0.02273905 -0.010940818 -0.3276905
-0.10476661 -0.29384494 -0.055654973 0.17689791 0.11211538 0.12522955 -0.11088375 -0.009984167
0.07525088 -0.17122325 -0.020822775 0.009445337 0.25457004 0.3067432 -0.24990413 -0.1785309
-0.10646791 -0.08880259 0.39810088 -0.34337345 0.014304813 -0.06792124 -0.2685973 0.03266665
-0.20600896 -0.1312595 0.03326028 -0.2147576 -0.064439066 0.24872845 -0.34427094 -0.047918938
-0.069277346 0.15651794 -0.047306478 -0.07185527 -0.027186617 0.18841279 0.09131238 -0.015838873
0.026889773 -0.03757544 0.290416 -0.021186097 -0.26781264 0.0031596164 -0.05392554 -0.072777934
-0.10116116 -0.15623575 -0.056196384 -0.06430203 -0.016113127 -0.34072638 -0.09181788 0.07566964
-0.06746579 -0.08165404 -0.13909255 -0.3076226 -0.056120183 0.34123665 -0.05162824 -0.0615613

fc2.weight f4 [84, 120]
00000000: 1758 f43d 0261 9ebe 71f3 413d 0fa2 f63b
00000010: e219 f3bd 19b4 40be d51b 8d3e 4456 c8bd
00000020: ad64 bd3e 4df6 6fbe 8736 af3c 1e78 bb3e
00000030: e6e6 863b fae8 b2bd 2f81 453e 99ea dbbd
00000040: 64a6 8dbb 2aff 243e 79fc 7bbe e1a0 cebb
00000050: 3dc4 d93c fc01 a53e a677 2e3e 39a6 a53c
00000060: 41ea aebd eb6d 00bd 832b 563d e9b0 4bbb
00000070: 827c 1cbe d354 4ebe ade6 003f 733c 36be
00000080: 988d ef3a 6178 18bc 72ac ea3e 77f3 c83d
00000090: ed22 0d3e 8d85 acbd 9a3d 3fbd d88f 42be
000000a0: 4cd0 b53d 7bc5 db3b c083 22bd 18b3 9fbd
000000b0: e07c 4dbe 43e4 8abe c823 6ebe e39f 403d
000000c0: f1de 0cbc 2e19 7fbe f134 15be 14d8 fe3c
000000d0: 96e7 cf3e 5d64 1dbe 85db 06bf 66f2 98be
000000e0: b179 94be a3f3 52be 38b5 22bd 782f 0b3f
000000f0: b3a3 aa3d f539 49be e080 19be f4c5 6fbd
00000100: f3f7 d33e d436 a43c 224d a2be 6dfa 25bc
00000110: 78d7 d4bb 05b8 a93d e4bd d6be 2af4 e5bb
00000120: 30c0 38be 5df8 e2bd f838 ba3d bdf9 91be
00000130: 75b9 f9bd d2d4 acbe d1dc 1a3d dcdb d9bd
00000140: c55c 7a3d 067e 8cbe 0316 9cbc 8fd3 0ebf
00000150: 29fc 44be 14a2 30be 0f21 a1be 7145 ef3d
00000160: e01e d3bc 43a6 ea3d 1039 023c d07c 93bd
00000170: 1aec 91be 23a3 ac3d 87d0 ea3e cf37 963b
00000180: d40c 8bbe e124 2abe b975 8cbe 19e0 613e
00000190: 3d6e 8abe d73e 243c fe96 96be b99f 003e
000001a0: 2bb7 d2be b473 373c 28b8 c8bc 60b9 203d
000001b0: 7506 ddbb c61f b0be 1c55 7dbe bdda e1bd
000001c0: da7b 93bd a732 bfbd ea70 c5be 2e96 07bd
000001d0: 44e3 c2bd 7538 da3b 3837 833d 7d88 e03d
000001e0: 824d dfbd 3e59 83be cf05 ddbd 62cc 723d
000001f0: 6e21 043e 7a17 8bbe 996d d7be 00a8 cabe
00000200: 22d6 8c3e 9831 253e 83c4 d7bc a9ad 293e
00000210: de8d 1abe 3e34 de3e 77c9 033e ddb0 68be
00000220: 092f 00bf 5077 0fbe d7fa d33e de56 28bd
00000230: 848e 4b3e 07b1 623d 7b80 383d b4cd 2a3c
00000240: fb45 b6bd 5e41 af3e 9aec 4f3d c454 f43d
00000250: 8c2c c9be 1494 39bc bdbc f83e ddca 46be
00000260: 02bb ea3e 442d 923c 3790 833e b361 17be
00000270: 5e53 96be 6509 9e3b 641d 3f3d 168e 47be
00000280: cc49 a43e 90bf fe3d 961f 853d 55bf cc3e
00000290: d6de b5bb 519e cfbc 8f3b 5dbc 925d 743e
000002a0: 4628 173f 0129 7d3e c8d1 48be 783a b63d
000002b0: 5165 19bf 049b 0cbe bafc 9dbe 0f5c 22be
000002c0: 5064 07be 1d88 843e 5b4f 3abd 879d fb3e
000002d0: d864 e53c 649b b43e 95b2 1c3e cf64 773e
000002e0: fa6a ff3e b9b4 57bd b6bf a8bd 478e a53e
000002f0: 9e2a 53bb 669f 233e 8220 02be 5288 053e
00000300: 9c76 14bf a41b b5be 9e42 d43e f2c0 cabe
00000310: 720f a33e 4aba a8bd 9952 6abe f41d 29be
00000320: 4cb9 083d 435e 13be 0c48 46be 5e38 18be
00000330: 4abf b2be 477e e7bd 2154 05bf c45d fe3d
00000340: 0378 13bf d9c3 153e 9611 e63c c3ff 8d3c
00000350: 583c c3bb f914 33bd 9830 c03e da05 c03d
00000360: 2422 853d 008b ecbc 19e4 d33e 2813 9a3e
00000370: 86ef 183e 4717 06bd 5c85 5abe 04b2 44be
00000380: e606 023e 1b73 2bbf 3373 b03e d8c1 253e
00000390: 3273 36bd f46b 0c3e cb4d 333e bb2e 02bc
000003a0: 2d63 e8bd 2648 5fbf c7ea d2be 63ae 0fbf
000003b0: 9bb7 2f3d 27b7 883e 0df9 06bf 3677 7b3e
000003c0: 5ac2 903d 526a 943c 29fb 67be a62c 9fbd
000003d0: d703 33be 6976 94be cee2 b0be be76 ea3d
000003e0: cab7 27be 6a99 69be 9b82 1f3b ee19 56be
000003f0: 2480 f1bc af3a d8bd f06e 1abe 3cd2 02bf
0.11930864 -0.30933386 0.047351304 0.007526643 -0.11870171 -0.18818702 0.27560297 -0.09782079
0.36990872 -0.234338 0.021388305 0.3661508 0.0041168807 -0.08735843 0.19287561 -0.10738105
-0.004322814 0.16112962 -0.2460803 -0.0063057994 0.026582832 0.32228076 0.1703783 0.020220863
-0.08540774 -0.031354826 0.05228759 -0.0031080788 -0.15281871 -0.20149545 0.50351983 -0.17796497
0.0018276451 -0.009306044 0.4583469 0.09812062 0.13782854 -0.0842391 -0.046689607 -0.19000185
0.0887762 0.006706891 -0.039676428 -0.07797831 -0.20067167 -0.27127275 -0.23255837 0.04702748
-0.008598075 -0.24911949 -0.14570977 0.031108893 0.40606374 -0.15370317 -0.5267871 -0.29872435
-0.28999093 -0.20600753 -0.039723605 0.54369307 0.083320044 -0.19651015 -0.14990568 -0.058538392
0.41400108 0.020045675 -0.31699473 -0.010130507 -0.0064954124 0.08287052 -0.4194175 -0.007017632
-0.18042064 -0.11082528 0.09092897 -0.28510848 -0.12193576 -0.3375612 0.037808243 -0.10637638
0.06112363 -0.27439898 -0.019053465 -0.5579156 -0.19236816 -0.17249328 -0.31470534 0.11683167
-0.025771558 0.11457493 0.007948175 -0.072015405 -0.28500444 0.08429553 0.4586222 0.0045842896
-0.27158225 -0.1661563 -0.27433565 0.22058143 -0.2703723 0.010024748 -0.29412073 0.1256093
-0.4115537 0.011197019 -0.024501875 0.039239287 -0.0067451545 -0.3439924 -0.24739498 -0.11028049
-0.07201357 -0.09335833 -0.3856271 -0.033102207 -0.09516004 0.0066595622 0.064070165 0.10963533
-0.10903455 -0.25654024 -0.107921235 0.059276946 0.12903377 -0.2716635 -0.42075804 -0.395813
0.2750712 0.161322 -0.026338821 0.16570152 -0.1509318 0.43399233 0.12869821 -0.22723718
-0.5007177 -0.14010358 0.41402313 -0.041098468 0.19878584 0.055344608 0.045044404 0.01042502
-0.089000665 0.3422956 0.05076275 0.1193023 -0.392918 -0.0113268085 0.48581496 -0.19413324
0.458458 0.01784385 0.25695965 -0.14783363 -0.2936048 0.0048228973 0.04665889 -0.19487795
0.32087553 0.124388814 0.06500165 0.39989725 -0.0055502458 -0.025344046 -0.013502969 0.23863819
0.5904583 0.24722673 -0.19611275 0.08897871 -0.5992022 -0.13731009 -0.30856878 -0.1585543
-0.1322186 0.25885096 -0.045485836 0.4914362 0.028002188 0.35274804 0.15302499 0.24159549
0.49886304 -0.052662585 -0.08239691 0.32335111 -0.0032221447 0.15978774 -0.12707713 0.13040283
-0.57993484 -0.3537265 0.41457075 -0.3960033 0.3184772 -0.08238657 -0.22883071 -0.16515332
0.033379838 -0.14391427 -0.19363421 -0.14865252 -0.34911567 -0.11303382 -0.52081496 0.12420228
-0.57605 0.14625491 0.028084558 0.01733387 -0.0059581213 -0.043721173 0.37537074 0.09376116
0.065006524 -0.028874874 0.41384962 0.3009274 0.14935121 -0.032737043 -0.21339935 -0.19208533
0.12697944 -0.6697251 0.3446289 0.16187227 -0.044543453 0.13713056 0.17510144 -0.007945712
-0.11347041 -0.87219465 -0.41194746 -0.5612547 0.04289971 0.26702234 -0.5272377 0.24557194
0.070683196 0.018117104 -0.22654404 -0.07772188 -0.17481934 -0.2899659 -0.34548038 0.114484295
-0.16378704 -0.22812429 0.0024339322 -0.20908329 -0.029480048 -0.10558068 -0.15081382 -0.5110204

fc2.bias f4 [84]
00000000: 29d3 d53d 34dc 7b3e b49e 3e3e fadd 7abc
00000010: 72ec 01be 592c e23e d76a c1be 1c86 0e3d
00000020: 5df1 13be c0ef d6be d595 a1bd b52a 47be
00000030: fcc6 9cbe 5c61 ffbd fc89 64bd 4652 3bbe
00000040: 4143 1b3f 8eb6 33be bf3f ec3d d4f0 043c
00000050: da2a ac3c bfb7 55be fe45 98bd 2677 9bbe
00000060: 16e0 7cbe 0819 5bbe 9014 aabe 999b 533f
00000070: 1025 b9be 1f8a 81bc dbc9 6fbd c144 303e
00000080: fd5a bbbd b3ce 0ebe 4e5e 2bbf fc3e 23be
00000090: 9b4f 0a3f 7749 893e fe76 ed3d aa17 87be
000000a0: 534f 183e 89db 8bbd 5390 033f b604 b7be
000000b0: 290d 873d c13c 83be 0b9e d1be 0498 dcbe
000000c0: 0afe 76be fbd5 40be 9c85 c4be c7cf aebe
000000d0: a866 1d3e 5112 2ebe c263 2ebe ef72 42be
000000e0: d142 a4be 0bf5 a1be 3c78 4abe 9526 4e3b
000000f0: 7122 ccbd 609c c1be c1f9 a03e c359 573c
00000100: 5d86 c4be 06e4 cebe 0d42 06be 55e4 cf3d
00000110: 95d4 e63d e8a7 c6be 3465 14be ffc2 92bd
00000120: c11a 61bb f444 553e a93e 4cbd 2585 bcbc
00000130: 9b03 173e 9f19 203f bd08 a3be 0f07 00bf
00000140: 2ac7 e03d 2def 7e3e dc06 21bf 8a54 c8bd
0.10440666 0.2459572 0.18615228 -0.015311712 -0.12687853 0.4417446 -0.37776825 0.034795865
-0.14447542 -0.4197979 -0.07889906 -0.19449885 -0.30620563 -0.12469742 -0.055795655 -0.18293104
0.60649496 -0.17550108 0.11535596 0.0081140585 0.021016527 -0.20870875 -0.07435225 -0.3036434
-0.24694857 -0.21396267 -0.33218813 0.826593 -0.3616109 -0.015812932 -0.058542114 0.17213728
-0.09148214 -0.13946037 -0.6694077 -0.15941995 0.5402772 0.26813862 0.115949616 -0.26385242
0.1487401 -0.068289824 0.51392096 -0.35745782 0.06594307 -0.2563229 -0.4094089 -0.4308473
-0.24120346 -0.18831627 -0.38383186 -0.34142897 0.15371192 -0.16999175 -0.17030242 -0.18989156
-0.32082227 -0.31632265 -0.19772428 0.0031456102 -0.09967507 -0.37814617 0.31440547 0.013143959
-0.3838376 -0.40408343 -0.13111134 0.10150973 0.112710156 -0.38799977 -0.14491731 -0.07166099
-0.0034348222 0.20827085 -0.049864445 -0.023012707 0.14747469 0.62539095 -0.31842604 -0.5001077
0.109754875 0.24895926 -0.6290109 -0.097817495

fc3.weight f4 [10, 84]
00000000: 436a c53d 3303 e1be afd6 e73d f5a5 d33d
00000010: 556d b2be 4b68 1f3d d22a 493e c5a9 9a3d
00000020: 9c24 bebd 9c8d d6bd fc1c 263e 0072 8e3d
00000030: 79ac dfbd 79d8 01be ae2d 2a3c baf1 16be
00000040: 15be 3cbe 60ff f43d b67b 9fbe cfeb 8cbe
00000050: d81f f2bd 2dbd 8d3d 2b0a 68be 022d 8cbe
00000060: cc98 35be 30be 6bbe bd70 aebe 4d9c c4bd
00000070: f245 abbe 3d9b 4b3e 07c0 47be 18fa 603d
00000080: c954 dbbe 4e31 1e3e 4e70 173e 5e33 9fbe
00000090: 93a9 abbc 8b72 71bc 8588 503b 1068 f73d
000000a0: 47e1 18be 5ed8 613c ffd3 2a3e f952 dcbc
000000b0: e748 71be d51a 00be f496 9dbe c0a0 85be
000000c0: e1c8 633e dfc4 923e 2fab 03bf ce95 643e
000000d0: a6f1 c8be c684 5a3e 19fd 823d 8986 243b
000000e0: 31d2 78be 9b33 1cbe c003 4abe 99d5 eb3c
000000f0: f849 dcbd fb73 4a3e 894b d13d 2386 93be
00000100: 4d74 1f3e b7fc d23d 3867 1cbf c21d 613e
00000110: 63e3 05be 6275 11be 43f0 e6bd 5765 a6be
00000120: 0b20 9fbd 0116 013d ca2a 05bd 4e95 b7bd
00000130: e543 f9bd 3c05 13be fb93 e6be 2eb2 81bb
00000140: 270c 643e 299d 023d aaf7 96be 4d17 4dbe
00000150: 453f b2bd e4e9 4f3c 277b 8abd 0603 8abe
00000160: 7f09 643e 2046 99be 0c0e d5bc 98f8 3abe
00000170: ddaf 97bd 207a 3cbd fefb eabe 720e c3be
00000180: 2a9d 803e 066a ea3d 8cf4 c7bd 5b41 a43d
00000190: 0a03 5c3e 972c fdbe 5129 cf3c 76d4 86be
000001a0: 8329 3f3e bf9f 9cba fe8a 35be 76ee 96bd
000001b0: 69bb cbbc 6636 77be b07f cdbe de07 a2bd
000001c0: e45d 973c f0d5 dabd 7f3c 1d3d 58ad c1bc
000001d0: 3b68 e1be 434d ddbd f551 a43e 9a2a afbe
000001e0: d510 55be bf1a 9fbe 44a7 0dbe 5c20 56be
000001f0: 2623 9fbd 256d c6be 34b8 ba3e b809 febc
00000200: a094 91bd 8acc b63d 0036 363e af2d 93bd
00000210: 95bd 70be 0998 063e 6df5 8fbd 79d8 cebe
00000220: 5e98 65be 90eb e3be 5f94 323d 0079 a63d
00000230: b1bc e5bd fcba 9f3d 6f88 a3be 08b5 5cbc
00000240: a32f eebd acd6 a43e 1661 c5bd b2e5 dc3d
00000250: 5ff2 5fbf 6a3a 01bf eaac 94be 0322 9abe
00000260: 1eb3 a8be d574 67be de0d 5f3e 9247 323e
00000270: 76ff 56be 1348 8f3c 13de 4cbe 3562 e3be
00000280: 97de 55bf 95af 1abd adb7 9c3e 36a9 06bf
00000290: d55e 17be 2926 623e 49cb 1a3e fe1f 19be
000002a0: 128e 143e ffad a3bb 9220 51be fd65 a9bd
000002b0: 8404 193d 0b54 c3bc 177a 67be ce10 85be
000002c0: 7109 2ebd 9b7f 183d 0d44 4cbe 368a 9fbe
000002d0: b466 393e f197 abbe d76e b7be 585a 583e
000002e0: 1ea3 4ebe bf8b 93bd df18 d0bd 63bb eebc
000002f0: 60bf 1dbe 2c89 8c3e 894c afbe 9900 573e
00000300: b673 6cbc 9340 cf3d 8be9 a4be 47d0 3bbe
00000310: 52b6 733e 0687 5bbe 04fd 3ebe aa79 263e
00000320: 8d3c a4bd 7c71 51be 2f25 933d b60b b7be
00000330: 1778 133e 3f70 8f3d 4adb b6bd 967a 54bd
00000340: e21e 183e b706 8b3d 5bce fbbc b045 5cbe
00000350: 2245 d9bd e01a 7fbe 07bb 483e 9c2a 76be
00000360: 6228 a23e 437a cfbd 08df c3bc bc2f 31bd
00000370: d18a 8d3e ed0e 0dbf 5945 95bd b564 0c3e
00000380: 6a6f 4cbd cd19 f23d 0092 23be f7f0 003d
00000390: b527 6d3d 5a33 cdbe dc35 a4bc da0a 8a3d
000003a0: 67bf a3be 2e5a 3ebe b8e0 fbbe 3541 143d
000003b0: 9251 3c3e ab04 cc3d a2ba f33d 9de6 c3be
000003c0: a560 bdbd c08f f5bb 6b59 8e3d b4b5 b83d
000003d0: 59c7 99bd 6387 86be a877 bc3b d144 d4be
000003e0: b820 673e eea9 46be 26a9 723e 1133 e4be
000003f0: ca88 50be 6781 98bd a609 8f3d 34eb 8dbe
0.096394084 -0.43947753 0.113202445 0.10334388 -0.3484904 0.03891782 0.19645241 0.07551912
-0.092843264 -0.104762286 0.16221994 0.069553375 -0.109215684 -0.12680234 0.010386867 -0.14740649
-0.18431886 0.119627714 -0.3114907 -0.27523658 -0.1182248 0.06920848 -0.22660129 -0.27378088
-0.17734069 -0.2302177 -0.34070387 -0.096001245 -0.33451802 0.19883437 -0.19506846 0.054926008
-0.42838123 0.15448496 0.14788935 -0.31093878 -0.020954883 -0.014736782 0.0031819653 0.12080395
-0.14929686 0.013784496 0.16682433 -0.026895033 -0.23562966 -0.12510236 -0.3077923 -0.26099205
0.22244598 0.28665826 -0.5143308 0.22322771 -0.39246863 0.21339712 0.06395931 0.0025104603
-0.24298932 -0.15254061 -0.19727993 0.028788375 -0.10756296 0.19770806 0.10219485 -0.28813276
0.15571709 0.10302108 -0.61095 0.21984008 -0.13075022 -0.14204934 -0.11276295 -0.3249919
-0.077697836 0.031515125 -0.03251151 -0.089640245 -0.12171153 -0.14357466 -0.45034775 -0.0039580083
0.22270261 0.03188816 -0.29485828 -0.2002842 -0.08703474 0.012690041 -0.06761771 -0.26955432
0.22269247 -0.29936314 -0.026007675 -0.18258893 -0.0740659 -0.046014905 -0.4589538 -0.38096958
0.25119907 0.114460036 -0.097634405 0.08020278 0.21485534 -0.49448082 0.025288256 -0.2633397
0.18668179 -0.0011949464 -0.17728803 -0.073697016 -0.024869638 -0.24141845 -0.4013648 -0.07911657
0.018477388 -0.106853366 0.03838777 -0.023642227 -0.44024834 -0.10805752 0.32093778 -0.3421219
-0.20807202 -0.31075093 -0.13833338 -0.20910782 -0.07770376 -0.38755146 0.3646866 -0.031010494
-0.07108426 0.089257315 0.17794037 -0.07186448 -0.2350982 0.13143934 -0.07029233 -0.4039953
-0.22421405 -0.44515657 0.04359853 0.08128548 -0.11217631 0.07799336 -0.31940028 -0.013470896
-0.1163018 0.32195032 -0.09637658 0.107859984 -0.87479204 -0.5047976 -0.29038173 -0.30104074
-0.32949156 -0.22603162 0.21782634 0.17410114 -0.20995888 0.017490422 -0.2000659 -0.44410864
-0.8354277 -0.037765104 0.30608884 -0.52601945 -0.1478227 0.2208487 0.1511661 -0.1495361
0.1450732 -0.004995107 -0.20422581 -0.08271406 0.037357822 -0.023843786 -0.22605167 -0.25989383
-0.042489473 0.03723107 -0.19947834 -0.31160134 0.18105584 -0.3351436 -0.35826752 0.21128213
-0.20179412 -0.07204389 -0.10160994 -0.029142087 -0.15405035 0.27448404 -0.3423808 0.20996322
-0.0144318845 0.101197384 -0.3220943 -0.1834117 0.23800018 -0.21438226 -0.18651205 0.16257349
-0.08019362 -0.20453447 0.071848266 -0.35751122 0.1440128 0.07003831 -0.08928545 -0.05187472
0.14855531 0.0678839 -0.030738046 -0.21510959 -0.10608889 -0.24912596 0.19602595 -0.24039692
0.31671435 -0.101307414 -0.02391006 -0.043258414 0.2764497 -0.551009 -0.07288618 0.13710292
-0.04991094 0.11821327 -0.15973663 0.031479802 0.057899196 -0.4007824 -0.020045213 0.06740351
-0.31981966 -0.18589088 -0.49194884 0.036195 0.18390492 0.09961828 0.11900832 -0.3826188
-0.09246949 -0.007493943 0.06950649 0.09019032 -0.07508726 -0.26275167 0.005751569 -0.41458753
0.22571075 -0.1940076 0.23697338 -0.4457021 -0.20364681 -0.074465565 0.06984262 -0.27718508

fc3.bias f4 [10]
00000000: b57c 7abe 118a a6be 1aa7 f3bd 0761 7abe
00000010: ff7d c93a 87dc 343d 8cc4 95be 2da1 06be
00000020: 9219 653f 9625 fc3d
-0.24461634 -0.3252721 -0.118971065 -0.24451075 0.0015372633 0.044155624 -0.29251516 -0.13147421
0.8949214 0.123118564
