py--pytorch/models/iris-ANN.pt (torch_old, 2131 bytes, 8 tensors)

fc1.weight f4 [8, 4]
000000 a8 61 5d be bb 13 12 3f e0 78 58 3e ce 0e 21 bf
       -0.21619284 0.57061356 0.2113986 -0.62913215
000010 97 7a 37 3e e5 9d 95 3e 62 65 d6 be 2f 8e b4 3e
       0.17917858 0.29222026 -0.41874224 0.35264727
000020 63 70 c2 3d 11 31 88 be 41 8f 8a be f6 17 ae bd
       0.09494092 -0.26599935 -0.2706242 -0.08500664
000030 03 79 1b bf 7d 47 b1 bd 8e 81 83 be bd 0c 97 be
       -0.60731524 -0.086562134 -0.2568478 -0.29501906
000040 a2 f3 be bd d7 73 d5 be 3f ca 25 3d 75 bb 88 be
       -0.09323813 -0.4168994 0.04047608 -0.26705518
000050 d9 90 f3 3e 1d 50 1a 3e bf 83 8b 3e ae 0f 85 3e
       0.47571447 0.15069623 0.27248952 0.25988525
000060 d9 33 88 be 7b c3 d3 3e 17 1d 2a bf eb db 28 bf
       -0.26602057 0.41360077 -0.6645064 -0.6596057
000070 9e e9 b4 bd 4b 69 b4 be 4f 6a 1c 3f 66 c4 8f 3f
       -0.088336214 -0.35236582 0.61099714 1.1231811

fc1.bias f4 [8]
000000 f4 33 c4 3e f7 e9 05 bf ef aa 11 3f 9d 42 99 be
       0.38320887 -0.5231013 0.5690145 -0.29933634
000010 19 c7 b0 3d fd ad a3 be 0c c5 ab 3e aa a9 86 be
       0.08631725 -0.3196868 0.33548772 -0.26301318

fc2.weight f4 [8, 8]
000000 03 9a 27 3f 29 22 1e be 07 79 1f 3e 63 8d 8b 3e
       0.6546938 -0.15442719 0.15573512 0.27256307
000010 d9 fc a7 bc 8a 6d c3 3d 15 a4 4f 3f de c5 ce be
       -0.02050631 0.09542377 0.81109744 -0.40385336
000020 e7 ce 48 be 51 82 a1 3e 0c 85 66 3e f9 e7 05 bc
       -0.19610177 0.31544736 0.22511691 -0.008172982
000030 c6 66 f5 bc 86 0b 75 be b8 b7 51 3e 54 21 08 be
       -0.029956233 -0.23930177 0.2048024 -0.13293964
000040 37 e8 a9 bd 60 78 f7 3c 5e cd 28 bb 39 a8 a3 3e
       -0.082962446 0.030208766 -0.0025757174 0.3196428
000050 09 b3 81 3d 07 1a 09 3d be 7b f5 3e e2 84 ee 3d
       0.06332976 0.033472087 0.4794597 0.11646439
000060 a4 50 78 bb d3 9a b0 3d c1 0d 98 be 76 1c 8b be
       -0.0037889862 0.086232804 -0.29697993 -0.2717015
000070 20 fb 00 be 93 13 ad be 10 02 6b 3d 20 48 66 bd
       -0.12595797 -0.33803996 0.057375014 -0.056221128
000080 e2 2a af 3d fe 6c a4 be 95 b3 b3 3e d7 ee a8 3c
       0.08553101 -0.32114404 0.35097948 0.0206217
000090 25 41 e0 3e 2a e3 7f be 59 c9 ac be 3c d1 b3 3d
       0.437997 -0.24989 -0.33747366 0.08780143
0000a0 33 27 26 be 23 ab 44 3e d9 a5 8b 3e 5b 49 ae 3e
       -0.16225891 0.19205908 0.2727497 0.3404034
0000b0 93 73 bd be 46 08 dd 3e 9b fd 25 be d4 e1 21 3f
       -0.3700224 0.43170375 -0.16210024 0.6323521
0000c0 8c 0a d1 3c 35 db 8f be 5b 09 ef be f2 8d c2 3e
       0.025517724 -0.2809693 -0.46686825 0.3799892
0000d0 1a 4d 05 bc ac 5c ae 3e 7a b3 c7 3e 88 28 61 3f
       -0.008136058 0.34055078 0.39004117 0.8795247
0000e0 3a f6 b6 be aa 44 99 be 8d fd a5 be ab be c4 3d
       -0.3573473 -0.299352 -0.32420006 0.096066795
0000f0 22 41 bb 3e ff 37 39 3e 57 03 af be ed 86 47 3f
       0.3657313 0.18087767 -0.34182236 0.77940255

fc2.bias f4 [8]
000000 7a b0 04 3f 6a 4d 01 3f 32 b2 8f be 4a 59 36 bd
       0.5183178 0.5050875 -0.2806564 -0.044518746
000010 aa d8 ad 3e aa 2d 17 be 2f 48 5c 3c f8 0c d9 3e
       0.33954364 -0.14763513 0.013444944 0.42392707

fc3.weight f4 [8, 8]
000000 40 f1 12 bf a0 72 6b be 5c bb 65 3e f1 56 8c bd
       -0.5739937 -0.22992945 0.22434753 -0.0685252
000010 da 10 85 be ad 7c 2f 3f 9c 3e 72 3f 41 98 40 3f
       -0.2598942 0.68549615 0.94626784 0.7523232
000020 00 00 93 be aa 57 84 be dc 45 57 be c4 58 81 be
       -0.28710938 -0.25848132 -0.21022743 -0.25263035
000030 d9 e4 af be 70 4d 2d bd 1c 01 36 be 54 78 c0 bd
       -0.34354284 -0.04231018 -0.1777386 -0.09397951
000040 7f 82 27 3b c7 9c a2 be db 31 ad be 88 2c b2 be
       0.002555996 -0.31760237 -0.338271 -0.347996
000050 c9 ba 79 be c1 61 6e 3e fa 9b e1 3d 93 75 11 be
       -0.24387659 0.23279478 0.11016078 -0.14205007
000060 64 54 d3 bd 21 17 a1 be fb 90 93 be a6 d8 2c 3e
       -0.103188306 -0.31462958 -0.2882155 0.1687952
000070 b2 27 23 3e 47 d9 cf 3d 9d 8b e4 bd 0d 87 d9 3e
       0.15933111 0.10148864 -0.111594416 0.42485848
000080 c6 35 06 3f 1e 79 c2 be 1f e0 32 3e af c9 05 3e
       0.524258 -0.3798303 0.17468308 0.13065217
000090 34 82 45 be 6d bc 39 3e 28 8d 95 bd fa 4e 69 be
       -0.1928795 0.18138285 -0.07302314 -0.22784033
0000a0 cd 51 ea 3d 18 86 9c bd af 48 00 be 12 a3 d7 3d
       0.114413835 -0.07642764 -0.12527727 0.1052915
0000b0 d9 a4 0a bc 1c c1 73 be cd 9e 28 3e 8a cb 54 be
       -0.008462154 -0.23804134 0.16466828 -0.20780769
0000c0 84 97 62 3f fe ac c7 3e 17 d8 3b 3e 81 1c ac 3e
       0.88512444 0.3899917 0.1834415 0.33615497
0000d0 e6 72 fb be ba e8 eb bd cb a7 dc 3e fb 97 69 be
       -0.49111098 -0.115189984 0.43096766 -0.22811882
0000e0 23 e6 92 3e cb a5 bc be d2 00 a8 3e 72 ea 42 be
       0.28691205 -0.3684524 0.32813126 -0.19034746
0000f0 95 f1 4a be a3 85 4b 3c bf e5 f6 3e 36 ad a0 3d
       -0.19818719 0.012421998 0.48222157 0.07845537

fc3.bias f4 [8]
000000 bd da 0b 3e 21 91 a9 be cc 2b eb bd 4e c7 74 be
       0.13657661 -0.33118537 -0.11482963 -0.23904154
000010 d2 64 07 3d cb 01 4a 3d 71 44 87 bd 6b 99 0a bd
       0.033055134 0.049318116 -0.06604851 -0.033837717

output.weight f4 [3, 8]
000000 9d e7 64 bf 99 cc 7a be 44 45 06 be c8 26 97 bc
       -0.89415914 -0.2449211 -0.1311236 -0.01845111
000010 b6 52 2c 3f a1 f6 20 3d ec 2f 4c 3f c4 cd da 3e
       0.67313707 0.039297704 0.7976062 0.42735112
000020 b5 a4 8f be a4 93 9c be c3 c3 93 bb ae 7b 07 be
       -0.2805535 -0.3058139 -0.0045094206 -0.13230774
000030 85 46 ca bc ba d0 44 be 5f 28 a2 bd 9f ff de be
       -0.02469183 -0.19220248 -0.079178564 -0.43554398
000040 a6 f2 92 3f 95 0d 9c be ca 1d 14 be 49 69 67 3e
       1.14803 -0.30479112 -0.14464489 0.22598757
000050 4e 2b 7c 3c 0b fb 10 be 74 b4 37 bf 43 dc c9 3e
       0.015391184 -0.14158265 -0.71759725 0.3942586

output.bias f4 [3]
000000 1a 1c 47 bf 92 a3 a5 3f d4 0d 56 bf
       -0.77777255 1.2940543 -0.8361485
