py--pytorch/models/nyc_ticket_fare-ANN.pt (torch_old, 2347 bytes, 7 tensors)

fc1.weight f4 [8, 13]
00000000: 6cb1 b63e 9343 6dbb 8461 15bf 2429 cfbf
00000010: e4fd e0bd dedd 1b3e 09fd 423d d81f 03be
00000020: ca0a 0c3e 07be fd3d ec09 13bd 7d68 60bd
00000030: abea d5bd 3a05 b53d 2697 c93c ab57 573f
00000040: 90b3 ebbd 4369 173e 3ec6 613d 0408 8c3d
00000050: 0ca3 0d3e 424e 7dbe 9cea 083e 4b03 e13d
00000060: ff95 f53d a86b ba3c 43bb c63f 90b9 be3b
00000070: 81e5 843e 9422 92bd 5080 32be e422 06be
00000080: 424b d5bd 12a1 81bd 3a8f 8cbd 603a bebc
00000090: a867 b7bd 4f25 1b3d 1531 febc 7dd0 dbbe
000000a0: 4687 38bc 18d4 a4bf 3a62 f63d 67dc a2bd
000000b0: 6e19 8fbd b47c ffbd 97a9 87bd 664a d1bd
000000c0: 7041 94bd 1b9c b7bd 71a8 b3bd 2f68 97bd
000000d0: b002 29bf fd60 39bd 6333 b2bf f4a4 a33c
000000e0: 9d6a 423e c332 593e 00aa 33bd 251f 05bd
000000f0: 04ca 46bd 4eea 9ebb a074 83bd 9288 14bd
00000100: 5683 b5bc fb43 b43f cf69 e03a dbcb e33f
00000110: 896c febe 6f1f 293d 39c3 e93d 44aa a7bd
00000120: 3e91 61bd e863 8b3d c254 43bd 3e72 e3bb
00000130: 23fa d8bd 88df dcba 89f1 353f e8c1 183c
00000140: 2cfe a73e 472e 70be 8bcd 1c3e 2c06 343e
00000150: 2343 023d 51c4 38bc 5330 a43c 3c05 833b
00000160: a739 bebb 5347 24bd eca3 a53c 8bf5 233f
00000170: 17c1 293d b328 2a3e 0e36 33be d132 90bd
00000180: 1272 fcbd f9f0 5d3b 9981 64bd 8c38 a3bd
00000190: 59b2 7f3c 264d 483b ec26 16bd 70c3 ac3c
0.35682237 -0.0036203607 -0.5835192 -1.618443 -0.10985926 0.15221354 0.047604594 -0.12805116
0.1367599 0.123897605 -0.035898134 -0.054787148 -0.1044515 0.088388875 0.024608206 0.84118146
-0.11508858 0.14786248 0.0551207 0.06837466 0.13831729 -0.24736884 0.13370746 0.10986956
0.119915 0.022756413 1.5525898 0.0058204606 0.25956348 -0.071355015 -0.1743176 -0.13099247
-0.10414745 -0.0632955 -0.06863256 -0.023221195 -0.08955318 0.037877377 -0.031029264 -0.429325
-0.01126272 -1.2877226 0.12030454 -0.07952195 -0.06987272 -0.12474957 -0.066241436 -0.102192685
-0.07239044 -0.08965322 -0.08772362 -0.07392918 -0.66019726 -0.04525851 -1.3921932 0.019976117
0.18985982 0.2121077 -0.043863297 -0.032500405 -0.0485325 -0.0048497086 -0.06418729 -0.036263056
-0.022157352 1.4083246 0.0017121377 1.7796587 -0.4969218 0.041289743 0.11414189 -0.081867725
-0.055070154 0.06806165 -0.047688253 -0.006941109 -0.10594585 -0.0016851285 0.7107168 0.009323575
0.32811105 -0.23455153 0.15312783 0.1758048 0.031802308 -0.011277274 0.020042574 0.0039984267
-0.0058052125 -0.040107083 0.020219766 0.64046544 0.04144391 0.16617088 -0.17501089 -0.070409425
-0.12326445 0.0033865555 -0.055787656 -0.0796977 0.015606486 0.0030563562 -0.036658213 0.021089286

fc1.bias f4 [8]
00000000: ba6e 41be 5c4a 1bbf 6a4b 9abf 8b63 3bbf
00000010: c28d dabe fcb9 13c0 60c7 83bf f9f6 42bf
-0.18889895 -0.6066034 -1.2054265 -0.73198766 -0.42686278 -2.3082266 -1.029522 -0.761581

fc2.weight f4 [8, 8]
00000000: 7afd 00be e066 86be 8264 a7be 0947 1bbe
00000010: 7216 71be 888a 18bd c1a7 38be 4c28 a63d
00000020: 9b82 0dbf 6191 e03e fe67 3b3e 05de babe
00000030: 9b7d f6bd c211 273f b5ef c93e 5adf 4ebe
00000040: 2da3 053e bfbd 003f 4b8f 06c0 556c 193f
00000050: bda6 2d3f 8e38 b53e 5df4 2fbf 55c2 3abf
00000060: 41cc 10bf 7538 ac3e 50be 313e d8ea 4b3e
00000070: 50e9 92be 12ca 183e 8be5 993b 1446 9e3e
00000080: 6759 dbbe 6abc 5dbe 45b3 fa3d be7c 47be
00000090: e7d0 023d c4e6 da3e 00c3 493d e6bd 693e
000000a0: 05ff 7fbe 6df8 153f c026 87bf 79c8 0cbe
000000b0: cc08 a3be 35fc 973c 09ff f9be c24f d8be
000000c0: a194 b7be 44d0 9dbd 19d6 863e 23ea 393e
000000d0: f3dd eabd 734d eb3e 8b54 28bc 3df7 22bd
000000e0: 8c48 f1be 4c96 ad3e ea68 523c 3052 2ebf
000000f0: 4cdc fdbd 7a2c 3a3f 9242 e6bc 44dd 863e
-0.12596694 -0.26250362 -0.3269387 -0.15163817 -0.23543718 -0.03724149 -0.18032743 0.08113155
-0.55277413 0.43860915 0.18301389 -0.36497512 -0.12035676 0.6526147 0.39440694 -0.2020239
0.13050528 0.5028953 -2.102496 0.59930927 0.6783255 0.3539471 -0.68732244 -0.7295278
-0.56561667 0.33636823 0.17357755 0.19913805 -0.28693628 0.14920834 0.004696553 0.3091284
-0.42841646 -0.21653906 0.12241224 -0.19481179 0.031937506 0.42754185 0.049258232 0.22826347
-0.24999626 0.5858219 -1.05587 -0.13748349 -0.3184265 0.018552879 -0.4882739 -0.4224835
-0.35855582 -0.07705739 0.2633522 0.18155722 -0.11468115 0.45957527 -0.010274063 -0.039786566
-0.4712566 0.3390373 0.012842396 -0.6809416 -0.12395534 0.72724116 -0.028107915 0.26340687

fc2.bias f4 [8]
00000000: 90c0 b0be 918b 59be 6583 483f 7ea2 2ebe
00000010: 61b8 00be 030a a13e 34a4 82be 4124 8fbb
-0.34521914 -0.21244647 0.7832549 -0.17054173 -0.12570335 0.3145295 -0.25515902 -0.0043683355

fc3.weight f4 [8, 8]
00000000: 1872 bdbd 4838 71be d39d 243d 13c8 ac3d
00000010: ae44 6e3e 3ff5 1bbd 0844 a43e 07e9 41be
00000020: 384e a2bd e1cc 46be ae57 803e f83f c53d
00000030: 6e4d 4ebe 83d2 9d3e c97f bebe b6a9 fb3d
00000040: 3b80 893e 8450 b33e 560a b7be 8245 2fbe
00000050: 8df5 0f3d 407e 86be 0485 21be e689 543e
00000060: ea56 173e 06e0 b4be 113e dc3d bf35 8a3d
00000070: cddc 9d3e eca7 c5bd d89d d53c 60f2 43be
00000080: cad1 423e 1322 80be 985c 723d 2d16 3dbe
00000090: ca59 573e 8d3f 28be dad5 79be 3dff 4fbe
000000a0: c2c3 3e3e 878c 303f 4005 f2bf 7d4a 9e3e
000000b0: d278 923e d6b3 88bf fd7f 9e3e da28 293f
000000c0: 190b a1be 4b86 23be 5e82 04bf 8b32 ca3e
000000d0: 98f5 5d3e 0206 c1be c844 e63e 0fa5 d23d
000000e0: 8e9b 3fbe 5ac4 4abe e2db a7be daf2 243e
000000f0: 5aaa a3bd d979 febd bb4e 6c3e b0bd cdbe
-0.09250277 -0.23556626 0.040189575 0.08436599 0.23268387 -0.03807568 0.32083154 -0.18936549
-0.07925075 -0.19414093 0.25066894 0.09631342 -0.20146725 0.3082467 -0.37206867 0.12288229
0.26855645 0.35022366 -0.35750073 -0.17116359 0.035146285 -0.26268196 -0.15773398 0.20755729
0.14779249 -0.35327166 0.10754026 0.067485325 0.3083252 -0.09651169 0.026076242 -0.19135427
0.1902534 -0.25025997 0.059170336 -0.1846549 0.21030346 -0.16430493 -0.24397984 -0.2031221
0.18629363 0.6896443 -1.8907852 0.30916205 0.28607804 -1.0679882 0.30957022 0.6607796
-0.3145378 -0.15969197 -0.51761425 0.39491686 0.21675718 -0.37699896 0.4497435 0.10285389
-0.18711683 -0.19801465 -0.32784945 0.16108266 -0.07991476 -0.12425584 0.23076908 -0.40183783

fc3.bias f4 [8]
00000000: a87e bdbd 4ce7 0d3f f18e 5b3f f0e2 2b3f
00000010: 4d74 b3be 9ef6 8040 9834 5f3f 6747 4b3f
-0.092526734 0.55431056 0.85764986 0.67143154 -0.35049668 4.0301046 0.87189627 0.79405826

output.weight f4 [1, 8]
00000000: 3796 383d 7f2c 22bf 80ff dc3e 50ae 31bf
00000010: 8a32 543e 48ad fb3f e670 f23e ef08 4dbf
0.04506513 -0.63349146 0.4316368 -0.69406605 0.20722404 1.9662256 0.4735176 -0.80091757
