pytorch/models/mnist-image-CNN.pt (torch_old, 241854 bytes, 10 tensors)

conv1.weight f4 [6, 1, 3, 3]
0.85834706 1.0505791 0.69518 0.83595276 0.72256076 0.46690783 0.69518316 0.5174095
0.3477309 -0.3070772 0.035195123 0.28397354 -0.07120506 0.06585003 0.15702426 0.044826705
-0.26036292 0.08504688 -0.29054317 -0.26942682 0.05388653 0.32507956 -0.03873765 -0.26474023
-0.14041531 -0.15069185 0.04818896 -0.2516309 0.17896624 0.13101074 -0.13139333 -0.076133914
-0.31776854 -0.31211352 -0.19240317 -0.31048408 -0.22544332 -0.026779225 0.17912106 -0.009535182
0.3614718 -0.09656425 -0.052768666 0.39862025 0.07251188 0.34343496 0.019198585 -0.32530802
-0.16555263 -0.26114157 0.08085593 -0.25313753 -0.31795418 0.32540727
00000000: a2bc 5b3f 6079 863f 51f7 313f 0001 563f
00000010: bef9 383f 8b0e ef3e 86f7 313f f374 043f
00000020: c909 b23e 3939 9dbe c328 103d fb64 913e
00000030: f5d3 91bd 61dc 863d f8ca 203e 359c 373d
00000040: 4a4e 85be 0f2d ae3d 13c2 94be 50f2 89be
00000050: 1fb8 5c3d d470 a63e 5fab 1ebd 088c 87be
00000060: 08c9 0fbe f74e 1abe c961 453d c4d5 80be
00000070: ed42 373e ae27 063e f98b 06be 19ec 9bbd
00000080: 8fb2 a2be 58cd 9fbe 5605 45be c5f7 9ebe
00000090: 9dda 66be 1b60 dbbc 836b 373e 7439 1cbc
000000a0: d512 b93e 7ac3 c5bd f523 58bd f417 cc3e
000000b0: 1c81 943d b5d6 af3e 5a46 9d3c c68e a6be
000000c0: a186 29be 59b4 85be cb97 a53d 3e9b 81be
000000d0: e4ca a2be c89b a63e

conv1.bias f4 [6]
0.11199569 -0.3240317 0.19367243 -0.14528364 -0.13983043 0.13040292
00000000: ff5d e53d 7ce7 a5be 1152 463e 3cc5 14be
00000010: b52f 0fbe 5888 053e

conv2.weight f4 [16, 6, 3, 3]
0.114025824 -0.14986254 0.104112215 -0.03650728 -0.08420784 0.02747995 0.053291854 -0.09450032
-0.10588961 0.05652604 0.058267254 0.12639333 0.04637278 0.09884424 0.05136674 0.039956946
0.13410501 0.034102447 0.078957945 -0.024384577 -0.13229994 0.012336976 -0.0004325905 -0.07620693
-0.02035479 0.018965894 0.085294336 -0.067235276 -0.028033476 0.05377005 -0.0022766348 -0.088536344
-0.12240657 0.115842625 -0.032247093 -0.090984024 -0.12692034 -0.054754607 0.018707767 0.040157363
-0.11497771 0.034399975 0.12189248 0.0034234615 -0.13284518 -0.046041768 -0.11140106 -0.12620337
-0.005329424 -0.078567065 0.09871448 -0.12154483 0.015823245 0.1171032 -0.01739655 -0.18252555
-0.23180476 0.08843761 -0.06381543 -0.06635017 0.30752933 0.2726218 0.3209159 0.105105534
-0.0536581 -0.07244008 -0.13501246 0.05129648 0.08286695 -0.08957737 -0.075790524 -0.12409155
-0.018825611 -0.033022806 -0.016522136 -0.1051432 0.042983934 -0.069380686 0.045774367 0.051776063
0.08133835 0.11798295 0.123137265 -0.1179016 -0.111870535 -0.0048542223 -0.10103677 0.108229294
0.00654803 0.12877937 -0.05533067 0.038786147 -0.13453051 -0.029762175 0.04942106 -0.01677914
0.09559134 -0.08886299 0.06928656 -0.017618602 0.0832639 -0.124554776 -0.13002226 0.016391544
-0.009184082 -0.06801159 -0.13966347 -0.102608554 0.17587148 0.10735378 0.26341006 0.0078521045
-0.1077082 0.23552996 -0.1648562 0.042678896 0.16928035 0.11031567 0.040901825 0.10873169
-0.08488507 -0.086610354 -0.033712186 -0.037993032 0.006177638 -0.0005899022 0.11276396 -0.039517093
0.113757305 -0.054627597 0.09105709 -0.072555125 0.06163235 -0.093865655 0.055395484 -0.054578632
0.046242915 -0.069289625 -0.05153403 -0.025701804 0.10294416 0.07771148 0.028477257 -0.13384391
-0.09848298 -0.027802048 -0.11095163 -0.056538627 0.06806595 0.1030144 -0.036587615 -0.04875872
0.03893511 0.072536856 0.07842407 -0.05209341 0.102009155 0.15625843 -0.069444805 0.08330112
-0.007850026 0.0912669 0.023573747 -0.016942048 -0.025919322 0.048391283 -0.08617909 0.081926085
-0.10370056 0.10048059 -0.029901566 0.054349992 -0.08141092 0.12879819 -0.12780033 0.07615539
-0.12394751 -0.08027012 0.04372078 -0.012703453 -0.11838197 -0.10093139 0.048973687 -0.011524969
0.1283967 -0.11127927 0.03500693 -0.02839165 -0.1032802 -0.0050388444 0.07312925 -0.054240532
-0.04866718 -0.09520522 0.07039345 -0.024941407 -0.026869653 0.035224937 0.054711882 0.018978944
-0.016792566 -0.026480483 -0.011636087 -0.12068972 -0.0649878 -0.1295825 -0.077285744 0.04962247
0.05739378 -0.067735046 0.024127876 -0.042180013 -0.08675381 -0.063994594 0.03961568 -0.02242675
-0.032252114 0.09343125 -0.056884702 -0.040000387 0.0017290869 -0.004145934 -0.10527499 -0.12776811
-0.028296454 -0.08093054 -0.12190328 -0.10435195 0.086647585 -0.04836023 0.06295381 0.095081486
0.109935835 0.03259135 -0.11466616 0.11537661 0.13201702 -0.08725494 0.06352791 0.044179603
-0.059575364 -0.08988903 0.086601056 -0.025973024 0.010091109 -0.11301001 0.09656604 0.07956416
-6.0563412e-05 -0.09805347 -0.10927939 0.08727532 0.0032323047 -0.010906363 -0.039345562 0.033967625
00000000: 5f86 e93d 9175 19be c938 d53d a888 15bd
00000010: 2975 acbd a21d e13c 8f48 5a3d 6289 c1bd
00000020: a7dc d8bd d987 673d a5a9 6e3d 416d 013e
00000030: 62f1 3d3d d96e ca3d ee65 523d e5a9 233d
00000040: d352 093e 02af 0b3d b4b4 a13d 2ac2 c7bc
00000050: a379 07be 0721 4a3c 50cd e2b9 6112 9cbd
00000060: 17bf a6bc 5d5e 9b3c ccae ae3d a6b2 89bd
00000070: 76a6 e5bc fc3d 5c3d 9833 15bb 8b52 b5bd
00000080: 4cb0 fabd e63e ed3d 8715 04bd d555 babd
00000090: 68f7 01be 5e46 60bd 0841 993c 0c7c 243d
000000a0: 6f79 ebbd fde6 0c3d c4a2 f93d 275c 603b
000000b0: 9108 08be 4b96 3cbd 3d26 e4bd 753b 01be
000000c0: 73a2 aebb c5e7 a0bd d12a ca3d 7fec f8bd
000000d0: c09f 813c cdd3 ef3d 3683 8ebc fae7 3abe
000000e0: 3a5e 6dbe c71e b53d aab1 82bd 99e2 87bd
000000f0: 7c74 9d3e 1695 8b3e 174f a43e 9241 d73d
00000100: 99c8 5bbd 775b 94bd b540 0abe 421c 523d
00000110: 26b6 a93d 5774 b7bd 1038 9bbd b623 febd
00000120: 2b38 9abc ec42 07bd 6e59 87bc 5155 d7bd
00000130: ec0f 303d 7617 8ebd e77d 3b3d 2313 543d
00000140: b994 a63d 0ba1 f13d 642f fc3d 6576 f1bd
00000150: 611c e5bd 2b10 9fbb 5eec cebd 52a7 dd3d
00000160: db90 d63b bdde 033e 6aa2 62bd 39de 1e3d
00000170: 5ec2 09be cecf f3bc bd6d 4a3d 6874 89bc
00000180: 64c5 c33d cdfd b5bd 1de6 8d3d e354 90bc
00000190: 4386 aa3d 9316 ffbd 8e24 05be 8f47 863c
000001a0: d578 16bc a949 8bbd f103 0fbe 6f24 d2bd
000001b0: a717 343e 4cdc db3d afdd 863e 1da6 003c
000001c0: 1e96 dcbd c42e 713e 10d0 28be 11d0 2e3d
000001d0: d457 2d3e 2fed e13d ac88 273d b8ae de3d
000001e0: 39d8 adbd c560 b1bd ca15 0abd 959e 1bbd
000001f0: c96d ca3b aba3 1aba cbf0 e63d addc 21bd
00000200: 97f9 e83d 30c1 5fbd 247c ba3d c897 94bd
00000210: 3472 7c3d a33c c0bd 60e6 623d d88d 5fbd
00000220: 3669 3d3d b8e7 8dbd 5915 53bd 978c d2bc
00000230: 63d4 d23d 3227 9f3d 2349 e93c 610e 09be
00000240: 72b1 c9bd 1fc1 e3bc 9c3a e3bd 0c95 67bd
00000250: 2966 8b3d 37f9 d23d e5dc 15bd 39b7 47bd
00000260: 6c7a 1f3d 348e 943d cc9c a03d e65f 55bd
00000270: 2dea d03d 3602 203e 1439 8ebd c799 aa3d
00000280: 659d 00bc 24ea ba3d bb1d c13c 0dca 8abc
00000290: c254 d4bc f035 463d aa7e b0bd ddc8 a73d
000002a0: f660 d4bd c4c8 cd3d 21f4 f4bc 199e 5e3d
000002b0: c5ba a6bd ace3 033e 17de 02be 5bf7 9b3d
000002c0: 31d8 fdbd a964 a4bd 9014 333d 2522 50bc
000002d0: 3f72 f2bd 1eb5 cebd a298 483d 39d3 3cbc
000002e0: 6d7a 033e 63e6 e3bd 6d63 0f3d 9b95 e8bc
000002f0: 9284 d3bd e41c a5bb cac4 953d 522b 5ebd
00000300: 3d57 47bd f4fa c2bd 712a 903d ec51 ccbc
00000310: bf1d dcbc 0648 103d 9119 603d bb79 9b3c
00000320: 9090 89bc 99ed d8bc 49a5 3ebc 2c2c f7bd
00000330: 5318 85bd 46b1 04be fd47 9ebd ee40 4b3d
00000340: be15 6b3d acb8 8abd d3a7 c53c f3c4 2cbd
00000350: fbab b1bd 990f 83bd 0d44 223d 4eb8 b7bc
00000360: cb1a 04bd e258 bf3d efff 68bd 72d7 23bd
00000370: 87a2 e23a 9dda 87bb 6a9a d7bd a5d5 02be
00000380: f7cd e7bc e9be a5bd 6da8 f9bd 7ab6 d5bd
00000390: 4a74 b13d 6015 46bd eded 803d 15ba c23d
000003a0: 0a26 e13d 827e 053d 17d6 eabd 924a ec3d
000003b0: 782f 073e b8b2 b2bd ec1a 823d acf5 343d
000003c0: 4c05 74bd bd17 b8bd e55b b13d 61c5 d4bc
000003d0: 2e55 253c cb71 e7bd 6ac4 c53d 89f2 a23d
000003e0: 7805 7eb8 42d0 c8bd dfcd dfbd 67bd b23d
000003f0: 13d5 533b 9ab0 32bc d028 21bd a321 0b3d

conv2.bias f4 [16]
-0.14133085 0.028222155 0.11937332 -0.12822323 -0.03451926 -0.041220367 0.18758464 -0.0022337227
-0.057773076 -0.008450853 -0.10909326 0.19670855 0.052842636 -0.0914196 0.06265949 -0.00979145
00000000: 09b9 10be 2632 e73c 007a f43d f34c 03be
00000010: 1164 0dbd b0d6 28bd 3016 403e a663 12bb
00000020: 76a3 6cbd 7275 0abc 496c dfbd f76d 493e
00000030: 8571 583d 333a bbbd 9e53 803d 516c 20bc

fc1.weight f4 [120, 400]
-0.047418047 -0.017680818 0.04691867 -0.005017351 0.0057043447 0.035970535 0.041964862 -0.0042804484
0.013525438 0.025300134 -0.010381142 0.0011658156 0.03634128 0.010982398 0.009624139 -0.034470458
-0.020263119 0.034216683 -0.018220155 -0.03575972 0.046231605 -0.046955884 -0.016477577 -0.009649643
-0.042789996 0.03077103 0.02855674 -0.028021572 -0.008695096 -0.03856686 -0.0062907394 -0.02083982
0.0327527 0.01428659 -0.035987843 -0.0007685643 -0.0054134163 0.019736605 0.044196833 -0.0033094226
0.003740302 -0.040168554 0.048293713 -0.035561003 -0.045190107 0.045729473 -0.007338023 -0.010708435
-0.03559419 0.04379233 -0.040740278 0.0013378392 0.0031194873 0.021966372 0.04277933 0.02448303
-0.034882553 -0.019448608 0.016975058 -0.03695339 -0.031389683 -0.022472931 0.0022652603 -0.03943032
-0.008201576 0.0023687095 0.04290952 0.023442397 0.033629484 -0.008401754 -0.003268045 0.025775658
-0.04775543 0.0150091825 -0.03373753 -0.022574421 -0.015961997 -0.019240228 -0.011459826 -0.038802907
-0.0013373622 -0.031705413 0.033009183 0.04250662 -0.045983743 0.001526131 0.026044982 -0.043713093
0.0016401645 0.03181865 0.009583924 0.032216173 0.042968974 -0.033879023 -0.022446124 0.046227325
0.04865806 0.015803985 0.0011699976 0.008147319 -0.029699983 0.04712768 0.015520142 0.021372596
-0.039187495 0.0004717365 -0.008178301 -0.026336752 0.003845874 0.04649264 0.0054976176 0.008628728
0.035350915 -0.022308681 0.04515296 -0.03517436 -0.026021685 -0.041108206 -0.030915618 0.016695535
0.022749687 0.023094585 -0.03091556 -0.047259822 0.03638037 0.041829944 0.030173838 -0.03600425
-0.010981802 0.008171797 -0.045307487 -0.028331919 0.034091268 -0.023994304 0.020638943 0.03668602
-0.011538163 0.011118724 -0.035639655 -0.025926134 -0.025027499 -0.014887583 0.039628707 -0.03626303
0.02119462 -0.025154212 0.040178724 0.0037697682 0.019481393 0.019144563 0.03698229 -0.030155603
-0.042527903 0.018205084 -0.021664903 -0.04991713 0.020014944 -0.020694342 -0.0035607943 -0.018806627
0.0014924133 0.010603224 -0.014922452 -0.043875497 -0.021189392 0.040532086 -0.032950442 0.03304482
0.026720058 -0.022921443 0.04035449 0.051857397 -0.02016239 0.0035590723 0.021128831 -0.014891362
0.03203385 0.02123155 0.038462646 -0.0026682008 -0.052955765 -0.03876385 -0.00774211 0.03827117
0.005801307 -0.04793068 0.046706762 0.017012307 0.0131504405 0.006922326 -0.04558636 0.047703926
-0.043012857 0.030056972 -0.019280205 -0.04522263 0.026821233 -0.009214707 -0.02863236 0.026299274
0.003972566 0.040937364 0.03526293 -0.041923523 0.017597346 -0.0012948877 -0.024404101 -0.03440637
-0.012392982 -0.0045135343 -0.04552667 0.009675911 0.0035813397 0.049284305 -0.050845638 -0.047184467
0.01803311 -0.02306382 -0.0020649836 -0.0492698 -0.03292297 -0.01620674 -0.025644628 -0.028284417
-0.015715152 0.035467662 -0.0065195267 -0.016877128 -0.0052493745 -0.015490175 0.011607415 -0.0030537627
-0.037396286 -0.042385235 -0.011715156 -0.005094157 -0.0074263657 -0.027794497 -0.014638723 0.035477232
0.009289302 0.038356118 -0.0455484 0.03793756 -0.023807773 -0.019652046 -0.022341624 0.045534093
0.024121627 0.04431204 0.010625836 -0.034143433 -0.0028263929 -0.016027965 0.023312092 0.0012927414
00000000: 6d39 42bd 5dd7 90bc cb2d 403d 9768 a4bb
00000010: 83eb ba3b d755 133d 59e3 2b3d 0143 8cbb
00000020: cc99 5d3c 3a42 cf3c aa15 2abc 48ce 983a
00000030: 98da 143d 84ef 333c 91ae 1d3c e530 0dbd
00000040: d7fe a5bc cb26 0c3d 6f42 95bc c978 12bd
00000050: 5a5d 3d3d d054 40bd fcfb 86bc 8919 1ebc
00000060: 9044 2fbd 8713 fc3c d3ef e93c 7f8d e5bc
00000070: e075 0ebc 49f8 1dbd 8c22 cebb 45b8 aabc
00000080: b227 063d 4d12 6a3c fd67 13bd 7a79 49ba
00000090: 0763 b1bb a9ae a13c bd07 353d e6e2 58bb
000000a0: db1f 753b c887 24bd a1cf 453d 6aa8 11bd
000000b0: 4319 39bd d44e 3b3d cc73 f0bb 6f72 2fbc
000000c0: 37cb 11bd 965f 333d 47df 26bd 6f5a af3a
000000d0: 5070 4c3b d2f2 b33c 6139 2f3d a390 c83c
000000e0: 02e1 0ebd b052 9fbc 470f 8b3c 705c 17bd
000000f0: 7892 00bd 2719 b8bc c374 143b b081 21bd
00000100: e75f 06bc 5a3c 1b3b e5c1 2f3d 450a c03c
00000110: 12bf 093d 83a7 09bc b22c 56bb 7927 d33c
00000120: 339b 43bd 13e9 753c 5d30 0abd feed b8bc
00000130: bcc2 82bc af9d 9dbc fec1 3bbc ccef 1ebd
00000140: 6e4a afba 89dd 01bd a334 073d 6c1b 2e3d
00000150: 7359 3cbd 7508 c83a 495c d53c 800c 33bd
00000160: cafa d63a 4654 023d e405 1d3c 1bf5 033d
00000170: 3c00 303d bbc4 0abd efe0 b7bc dd58 3d3d
00000180: ad4d 473d 5c77 813c 9b5a 993a 557c 053c
00000190: 614d f3bc f408 413d 3248 7e3c 9515 af3c
000001a0: 1183 20bd 6753 f739 48fe 05bc 2cc0 d7bc
000001b0: 0f0b 7c3b 116f 3e3d 5c25 b43b 825f 0d3c
000001c0: 1fcc 103d b2c0 b6bc 4ff2 383d fd12 10bd
000001d0: 6e2b d5bc 1461 28bd c042 fdbc 13c5 883c
000001e0: 8d5d ba3c db30 bd3c a142 fdbc 8493 41bd
000001f0: 9503 153d e055 2b3d 202f f73c 3179 13bd
00000200: 04ed 33bc 00e3 053c 5894 39bd 5718 e8bc
00000210: 49a3 0b3d b48f c4bc 0013 a93c 1544 163d
00000220: 900a 3dbc 4f2b 363c e3fa 11bd 0b63 d4bc
00000230: 7806 cdbc 0deb 73bc b651 223d 8b88 14bd
00000240: 57a0 ad3c 3510 cebc 7292 243d 370e 773b
00000250: 7197 9f3c 0fd5 9c3c be7a 173d e208 f7bc
00000260: bd31 2ebd d422 953c 987a b1bc e875 4cbd
00000270: 61f6 a33c 2e87 a9bc 375c 69bb 5b10 9abc
00000280: 159d c33a 25b9 2d3c 4d7d 74bc cbb6 33bd
00000290: 6095 adbc f904 263d 0bf7 06bd 015a 073d
000002a0: 06e4 da3c c0c5 bbbc c04a 253d 6c68 543d
000002b0: 992b a5bc 533f 693b 5f16 ad3c e6fa 73bc
000002c0: ed35 033d caed ad3c 028b 1d3d fbdc 2ebb
000002d0: 25e8 58bd d8c6 1ebd 87b1 fdbb 3bc2 1c3d
000002e0: e418 be3b f652 44bd 974f 3f3d 655d 8b3c
000002f0: f274 573c aed4 e23b c3b8 3abd 3165 433d
00000300: 402e 30bd 0a3a f63c 85f1 9dbc 5d3b 39bd
00000310: 34b8 db3c 48f9 16bc 698e eabc 9371 d73c
00000320: 4d2c 823b f0ad 273d dd6f 103d 00b8 2bbd
00000330: 4f28 903c 39b9 a9ba 1ceb c7bc b2ed 0cbd
00000340: ef0b 4bbc 45e6 93bb 2c7a 3abd b687 1e3c
00000350: e9b4 6a3b 57de 493d 8443 50bd 8044 41bd
00000360: 2cba 933c 56f0 bcbc ad54 07bb 21cf 49bd
00000370: 3cda 06bd ffc3 84bc af14 d2bc b9b4 e7bc
00000380: 10bd 80bc 8a46 113d c1a1 d5bb e741 8abc
00000390: f202 acbb 81ca 7dbc 072d 3e3c a321 48bb
000003a0: d92c 19bd 249c 2dbd edf0 3fbc e3ec a6bb
000003b0: df58 f3bb 49b1 e3bc 41d7 6fbc 9350 113d
000003c0: 2832 183c 4e1b 1d3d f690 3abd 6a64 1b3d
000003d0: 8508 c3bc 54fd a0bc c805 b7bc f581 3a3d
000003e0: b89a c53c 8b80 353d fd17 2e3c fcd9 0bbd
000003f0: 013b 39bb 144d 83bc 00f9 be3c 3471 a93a

fc1.bias f4 [120]
-0.03543055 0.0049172575 -0.02000104 -0.025224507 0.0363898 0.050041415 0.047865633 0.07439768
-0.03560426 -0.011517543 -0.015812816 0.022256073 -0.029366376 -0.029177908 0.022257442 -0.02699221
0.0122587 0.037653472 0.0139470855 0.033868283 0.04687659 -0.024198875 0.05368818 -0.020992115
0.004807381 -0.005842964 -0.0027000206 0.017559625 -0.0067492113 0.011337657 0.04589913 0.03576091
0.052870363 0.035556298 -0.0066792737 -0.0045881844 0.013634425 0.03221014 -0.0005036438 -0.01888393
0.011835485 0.042880673 -0.02834599 0.01849677 -0.030197563 -0.023635037 0.048197504 -0.014999391
0.034228224 0.012746109 0.031957988 -0.009111098 0.016395204 0.050289247 -0.045672867 3.28007e-05
-0.03131566 -0.021977434 0.028230527 -0.008981591 -0.040041484 -0.031288255 0.024026845 0.013832384
0.0136716785 -0.02273167 -0.041712247 0.0010451429 -0.017827505 0.056571137 -0.019467732 0.015698178
-0.0018758154 0.03810979 -0.034648307 0.050686013 -0.046166442 -0.017976256 -0.035046425 0.0023580904
0.034399398 0.016073287 -0.018610606 -0.018319573 -0.0064269546 -0.014344713 -0.047160678 -0.029654615
0.03725558 0.003125745 0.002319749 0.048252624 0.050675135 0.014553029 -0.028864676 -0.011460447
0.035932627 -0.021921663 0.032984454 -0.008659479 -0.011228496 0.030669788 0.039660648 -0.029923994
0.028850174 -0.04060474 0.004008298 0.015591805 0.049340677 -0.0068917 -0.02699203 -0.009145454
-0.008686183 0.014090109 -0.0022441426 0.035054147 -0.049310748 -0.0051428652 -6.073382e-06 0.028250841
00000000: a01f 11bd f220 a13b 39d9 a3bc a0a3 cebc
00000010: 790d 153d 3af8 4c3d c10e 443d d05d 983d
00000020: c6d5 11bd 14b4 3cbc e189 81bc 5e52 b63c
00000030: c191 f0bc 8206 efbc 3d55 b63c c41e ddbc
00000040: b7d8 483c 873a 1a3d 5182 643c 78b9 0a3d
00000050: ab01 403d b83c c6bc 23e8 5b3d a8f7 abbc
00000060: 3c87 9d3b 5676 bfbb d4f2 30bb 34d9 8f3c
00000070: 7d28 ddbb 95c1 393c ba00 3c3d 087a 123d
00000080: 988e 583d 7ba3 113d cfdd dabb 7b58 96bb
00000090: ec62 5f3c c8ee 033d f706 04ba 79b2 9abc
000000a0: 9fe9 413c a5a3 2f3d da35 e8bc 8a86 973c
000000b0: e160 f7bc 449e c1bc bf6a 453d 01c0 75bc
000000c0: e532 0c3d 0ed5 503c 61e6 023d b746 15bc
000000d0: 3c4f 863c 19fc 4d3d 7913 3bbd 7c93 0938
000000e0: d944 00bd 050a b4bc b543 e73c 8627 13bc
000000f0: 8a02 24bd 1d28 00bd f2d3 c43c 39a1 623c
00000100: 2dff 5f3c c437 babc 76da 2abd 2dfd 883a
00000110: fd0a 92bc 23b7 673d cb7a 9fbc 7799 803c
00000120: ecdd f5ba 0319 1c3d 62eb 0dbd 239c 4f3d
00000130: 0619 3dbd f142 93bc d78c 0fbd 318a 1a3b
00000140: 62e6 0c3d 20ac 833c 4575 98bc ee12 96bc
00000150: 3499 d2bb 1606 6bbc 8e2b 41bd 3cee f2bc
00000160: 4f99 183d 4dd9 4c3b ee06 183b 8ba4 453d
00000170: bb90 4f3d d46f 6e3c 9d75 ecbc 99c4 3bbc
00000180: 172e 133d 0f95 b3bc b51a 073d 7de0 0dbc
00000190: baf7 37bc 353f fb3c 3473 223d 2a23 f5bc
000001a0: 3357 ec3c 2851 26bd 0a58 833b c574 7f3c
000001b0: 7319 4a3d c5d3 e1bb 641e ddbc d0d6 15bc
000001c0: 7e50 0ebc 33da 663c 7712 13bb f094 0f3d
000001d0: 11fa 49bd 7b85 a8bb f4c9 cbb6 4f6e e73c

fc2.weight f4 [84, 120]
-0.05835754 0.06306705 0.08892527 0.007837491 0.033523653 -0.010750646 -0.09918299 0.06639093
-0.08693617 -0.0085705025 0.11222863 0.051907312 0.009434511 -0.045968536 0.034755494 -0.062135253
-0.08186887 -0.0705047 0.026762744 0.019189274 0.08817971 0.015801957 -0.07607389 0.023142442
0.074196555 -0.051364895 0.011383263 0.04327455 0.084010266 0.011625506 -0.048244257 0.06206507
0.068091854 0.08389984 -0.026341794 0.085691705 0.041844428 0.03616764 0.05732372 -0.0105562825
-0.008170079 -0.07103916 0.0023982606 0.06252812 0.054815568 -0.057126638 0.08340151 -0.08299385
-0.016483163 -0.09321462 -0.0031015808 -0.0062137567 0.021366868 -0.110534005 0.04623144 -0.07532455
0.012461851 0.01476839 0.033053365 -0.022662435 -0.10479786 0.06718001 0.05270326 0.010166035
0.005271899 -0.035638813 0.02596116 -0.06857865 -0.019670283 0.07665146 0.06713137 0.014438409
-0.04083364 -0.01960605 0.078076355 -0.029308965 -0.022804163 -0.08178946 -0.033982407 -0.0030014736
0.08210535 -0.05265916 0.053217676 -0.03390953 0.07596763 0.02450687 -0.085365355 -0.0011448564
0.08661846 0.03565983 -0.016109431 0.09283033 0.08459893 -0.05016677 -0.014533761 -0.017242175
-0.078191854 -0.08324322 0.032934785 -0.089430176 0.04576017 0.037631266 -0.044318542 0.028412808
-0.010591837 0.005034969 -0.028870398 0.06479186 -0.05137876 0.07167795 0.08064292 -0.04519528
0.011310074 -0.07790315 0.050242722 -0.0383741 -0.058843408 -0.08033788 0.09780014 0.0689891
-0.032176454 -0.044845212 -0.029296689 0.07062979 0.08696756 0.05820267 -0.05675739 -0.06428312
0.08269942 -0.074616976 0.024967156 0.027342498 0.07371749 0.058897927 0.027684279 -0.046363626
-0.024836384 -0.08822953 0.028937228 0.0019952953 0.08327502 0.068118885 0.060249135 0.03537275
0.06707972 -0.078924716 -0.007387258 0.011232503 0.031148568 -0.017182179 -0.015141532 0.06311336
0.08481979 -0.022522524 -0.0678611 0.051103905 -0.07335132 0.044457585 -0.010015272 -0.07156138
-0.030287456 0.008177571 -0.03817041 -0.06885354 0.055717856 0.074531645 -0.03086761 -0.08807477
-0.074883685 0.022108048 -0.087880574 0.0028324276 -0.04997198 -0.058768585 -0.04477006 0.06981178
-0.057002816 0.06793712 -0.0584968 -0.04550619 -0.006124869 0.023386084 0.022490822 -0.021890216
-0.040439676 -0.021288149 0.039727747 -0.018501088 -0.03383267 0.077683896 -0.0014595389 0.003569387
-0.0014658645 -0.07504223 0.045509174 0.023062088 0.041101888 0.035052583 -0.072496794 0.030483231
0.051135853 0.062127337 -0.021816656 -0.01058282 -0.037727118 -0.011366814 0.08048709 -0.06115041
0.07367265 0.08567344 0.01494278 -0.04871783 0.039935514 0.023371994 -0.044295657 0.026394576
-0.0581961 -0.08218019 -0.038663365 -0.08516835 0.07889326 -0.059735376 0.031500764 -0.0004756227
0.06461859 -0.05133011 -0.0208508 -0.032998968 0.07065515 -0.0845926 -0.03467289 -0.08557612
-0.061122082 0.038507015 -0.049165767 0.0015479997 0.037284687 -0.084030285 0.037618414 -0.042801652
0.027846845 0.05852428 0.078725 0.0507736 0.031184493 -0.047476694 0.01982989 -0.01417613
-0.064730674 0.042802505 -0.087101325 0.07739049 0.02616724 -0.048978355 0.03463529 -0.0012808518
00000000: 5108 6fbd 4c29 813d 741e b63d d268 003c
00000010: 1950 093d 7a23 30bc 7420 cbbd f8f7 873d
00000020: 970b b2bd 4b6b 0cbc 20d8 e53d c39c 543d
00000030: 3593 1a3c 8149 3cbd c75b 0e3d 8981 7ebd
00000040: deaa a7bd c564 90bd 8b3d db3c d332 9d3c
00000050: 9097 b43d 1b73 813c a1cc 9bbd 3895 bd3c
00000060: 5df4 973d ff63 52bd de80 3a3c a840 313d
00000070: 930d ac3d e878 3e3c c59b 45bd f137 7e3d
00000080: be73 8b3d aed3 ab3d bfca d7bc 227f af3d
00000090: 1065 2b3d 8524 143d 47cc 6a3d 42f4 2cbc
000000a0: ccdb 05bc fb7c 91bd 232c 1d3b be0e 803d
000000b0: 4a86 603d 9ffd 69bd 69ce aa3d aef8 a9bd
000000c0: b307 87bc 4fe7 bebd e443 4bbb c59c cbbb
000000d0: 9209 af3c a75f e2bd 2e5d 3d3d c243 9abd
000000e0: cb2c 4c3c 1ef7 713c f762 073d 92a6 b9bc
000000f0: 43a0 d6bd ac95 893d 60df 573d 718f 263c
00000100: e5bf ac3b 01fa 11bd 80ac d43c f772 8cbd
00000110: 9323 a1bc 71fb 9c3d 2c7c 893d 148f 6c3c
00000120: 2d41 27bd de9c a0bc 7fe6 9f3d 5b19 f0bc
00000130: cccf babc 3b81 a7bd 2331 0bbd 5fb4 44bb
00000140: da26 a83d 22b1 57bd c7fa 593d b8e4 0abd
00000150: eb94 9b3d a2c2 c83c 08d4 aebd 020f 96ba
00000160: 0565 b13d 0b10 123d edf7 83bc d41d be3d
00000170: 3442 ad3d ac7b 4dbd 031f 6ebc 763f 8dbc
00000180: 0d23 a0bd 6c7b aabd a0e6 063d 2b27 b7bd
00000190: 046f 3b3d 3e23 1a3d 5c87 35bd fac1 e83c
000001a0: 6289 2dbc 62fc a43b 9d81 ecbc 98b1 843d
000001b0: 8972 52bd e4cb 923d 1e28 a53d b01e 39bd
000001c0: e34d 393c b08b 9fbd 50cb 4d3d 292e 1dbd
000001d0: c905 71bd 3088 a4bd 714b c83d 284a 8d3d
000001e0: 75cb 03bd 9daf 37bd 9cff efbc 5aa6 903d
000001f0: 0c1c b23d ec65 6e3d 707a 68bd dea6 83bd
00000200: 505e a93d c9d0 98bd ec87 cc3c 60fd df3c
00000210: 32f9 963d f43e 713d 24ca e23c c9e7 3dbd
00000220: ac75 cbbc afb1 b4bd c40d ed3c 80c3 023b
00000230: 188c aa3d ea81 8b3d ccc7 763d 04e3 103d
00000240: 1861 893d 48a3 a1bd d010 f2bb 8808 383c
00000250: 482b ff3c a4c1 8cbc 3014 78bc 9441 813d
00000260: 00b6 ad3d 2881 b8bc c3fa 8abd 5452 513d
00000270: 3839 96bd 2819 363d 1817 24bc c68e 92bd
00000280: 661d f8bc 38fb 053c 9358 1cbd 1603 8dbd
00000290: 6838 643d 0ca4 983d 12de fcbc 8c60 b4bd
000002a0: 9e5c 99bd f01b b53c bbfa b3bd 40a0 393b
000002b0: 6baf 4cbd 54b7 70bd cf60 37bd 7af9 8e3d
000002c0: c97b 69bd 9e22 8b3d 579a 6fbd b364 3abd
000002d0: 20b3 c8bb 2c94 bf3c ac3e b83c 1c53 b3bc
000002e0: 13a4 25bd 7c64 aebc 90b9 223d 988f 97bc
000002f0: 2094 0abd bc18 9f3d 004e bfba 60ec 693b
00000300: 4022 c0ba beaf 99bd d467 3a3d b4ec bc3c
00000310: 745a 283d 4c93 0f3d 3379 94bd f8b7 f93c
00000320: d473 513d 3c79 7e3d d8b8 b2bc 9063 2dbc
00000330: c087 1abd e03b 3abc 6ad6 a43d da78 7abd
00000340: b0e1 963d 8e75 af3d 90d2 743c 598c 47bd
00000350: 6c93 233d a076 bf3c 5d6f 35bd 7039 d83c
00000360: 095f 6ebd 164e a8bd 7a5d 1ebd be6c aebd
00000370: ca92 a13d 15ad 74bd f206 013d 005d f9b9
00000380: c056 843d 853f 52bd 4ccf aabc ed29 07bd
00000390: a6b3 903d e33e adbd 2905 0ebd 8842 afbd
000003a0: 265b 7abd 88b9 1d3d 0b62 49bd 40e6 ca3a
000003b0: d4b7 183d 1218 acbd c415 1a3d c950 2fbd
000003c0: 111f e43c 28b7 6f3d 933a a13d faf7 4f3d
000003d0: 9f76 ff3c ec76 42bd 4b72 a23c 0043 68bc
000003e0: 8491 84bd ae51 2f3d 2e62 b2bd e87e 9e3d
000003f0: ae5c d63c 879d 48bd bcdd 0d3d 41e2 a7ba

fc2.bias f4 [84]
0.006104321 -0.08603374 -0.07660202 -0.059658512 -0.022766484 0.0037275634 0.050305694 -0.014862328
-0.06359459 0.0022371835 -0.05756321 0.0862392 0.024205951 -0.07031661 -0.028483693 0.018731954
-0.018692128 -0.016128397 0.018853279 -0.07685913 -0.03984789 0.002869152 0.013110101 0.077252686
0.10250704 0.0059824465 0.06217345 0.006118174 -0.04224429 0.052976754 0.111325026 0.1364603
-0.021675542 0.029132724 -0.037202187 0.04024438 -0.07364447 -0.064219035 -0.013579621 -0.07430846
0.080296285 0.06687617 -0.042405885 0.0367258 0.11091011 0.0034085847 -0.08167995 -0.062141795
0.077812836 -0.016829338 0.046401717 0.09498176 0.0806378 0.02797207 0.053968266 0.080348395
-0.06462397 -0.012746051 0.13400333 0.039456688 0.04184307 0.045826606 0.05221369 -0.03361914
-0.006839233 -0.034201946 0.04627931 0.09151264 -0.06402588 -0.035778344 -0.06370509 0.07447635
-0.045959905 0.037703957 0.050564297 0.09066533 -0.039264414 0.04472424 0.033354178 0.031480473
0.0893703 0.0075144377 -0.065036684 -0.08254178
00000000: c206 c83b 7532 b0bd 85e1 9cbd 7c5c 74bd
00000010: c780 babc 234a 743b 580d 4e3d 1f81 73bc
00000020: e13d 82bd b69d 123b 67c7 6bbd 2d9e b03d
00000030: 8f4b c63c 2802 90bd a256 e9bc c173 993c
00000040: 3c20 99bc b31f 84bc 3172 9a3c 5268 9dbd
00000050: 8b37 23bd 6208 3c3b c0cb 563c a836 9e3d
00000060: 36ef d13d 6608 c43b 96a9 7e3d f77a c83b
00000070: 5908 2dbd 27fe 583d 60fe e33d 40bc 0b3e
00000080: e890 b1bc c0a7 ee3c 5261 18bd 4ad7 243d
00000090: e9d2 96bd 4585 83bd 0f7d 5ebc 092f 98bd
000000a0: 6172 a43d 60f6 883d cbb1 2dbd cb6d 163d
000000b0: d724 e33d 9062 5f3b d147 a7bd 6588 7ebd
000000c0: 565c 9f3d aedd 89bc ba0f 3e3d cc85 c23d
000000d0: 6e25 a53d af25 e53c d40d 5d3d b38d a43d
000000e0: 9259 84bd d0d4 50bc 2b38 093e 569d 213d
000000f0: a463 2b3d aeb4 3b3d 06de 553d 39b4 09bd
00000100: a51b e0bb 5717 0cbd 608f 3d3d fb6a bb3d
00000110: 0020 83bd 508c 12bd d077 82bd 0e87 983d
00000120: 7440 3cbd 776f 1a3d 821c 4f3d bfae b93d
00000130: b9d3 20bd c430 373d 649e 083d abf1 003d
00000140: c707 b73d ac3b f63b f431 85bd aa0b a9bd

fc3.weight f4 [10, 84]
-0.15880646 0.015601136 -0.10639452 0.023767332 0.103379786 0.030697301 0.030556222 0.014533841
-0.053509325 0.018603513 -0.050045423 0.18104465 -0.16736771 0.057758808 0.05704362 0.17649932
-0.07996038 0.07832924 -0.12807778 -0.09210757 -0.06632272 0.06272408 0.057105836 0.12512927
0.052149504 0.10838249 -0.03919913 0.010793441 -0.093002185 0.06877547 0.071844034 -0.07529967
-0.069184184 -0.07702373 -0.10222643 -0.1885418 0.042316332 0.032055862 0.053954154 0.06554987
0.17637295 0.1084086 -0.0124698505 0.114896804 -0.16857341 0.22370566 0.09218821 -0.022608018
-0.09271986 -0.059293445 0.037945688 0.0016462473 -0.04210546 0.131729 -0.04215954 -0.16694558
0.07778342 -0.14301385 -0.22915256 0.015377121 0.023112489 -0.08640148 -0.030823212 -0.094849415
-0.13269395 0.06667243 0.17851135 -0.16318303 0.08064202 -0.07900316 0.021664746 -0.22136573
-0.064447835 -0.09758169 0.012681995 -0.26878515 0.014405562 0.07868687 -0.15376322 0.07517297
0.07087185 -0.07175968 -0.07717142 -0.009647276 0.10514466 0.07484446 0.056163352 -0.028834913
-0.1823207 0.050400823 -0.17312878 0.05126435 -0.008943635 -0.065735556 -0.016042436 -0.09388748
-0.14799072 -0.002434478 0.07073163 -0.079831675 0.076163106 0.045614745 -0.058990285 -0.1049075
0.0068443445 0.09938929 -0.10643917 -0.15341493 0.15096267 0.0029274134 -0.007839504 0.021602806
0.078474805 0.025106525 -0.16212875 0.2169723 -0.012010232 0.008753557 -0.078053616 0.08270164
0.042785715 -0.030541718 -0.042424954 0.013499938 -0.1781393 -0.20062849 -0.07763143 -0.10189892
0.13228522 -0.01889363 0.043033566 0.06328053 0.10346969 0.028223904 -0.12998366 0.16034302
-0.1804519 -0.10542705 -0.008672193 0.07388032 0.059481144 -0.1108132 0.29189825 -0.11070848
-0.17936833 -0.012453314 0.09151981 0.060360145 0.014489911 -0.13397564 0.030498888 0.22683665
-0.030617788 0.0950653 -0.038784653 0.04790505 0.04936505 0.077346414 -0.05380411 0.19049959
-0.008769359 0.10146651 -0.073113464 -0.19193584 0.067621924 -0.042059176 -0.006053112 -0.081885554
-0.0072060875 0.027701966 0.10391705 -0.20526496 0.023895815 -0.09421657 0.16692628 -0.07939484
0.07799499 0.06273686 -0.103432566 -0.17928925 -0.14964925 -0.09024735 -0.074564695 0.22977014
-0.05546672 -0.014553515 0.07922286 0.11527517 0.022329321 -0.019930448 0.110470355 -0.1363076
-0.17937137 -0.03832304 0.13851748 0.09127164 -0.056332562 -0.060380425 -0.1398615 -0.1441348
0.014986478 0.07110082 0.05700247 0.16322553 -0.019674186 -0.029331695 0.06944428 -0.040824167
-0.1056522 0.010922833 -0.050899185 -0.15179968 -0.11413135 0.047942404 -0.008785281 0.03164549
-0.18414518 0.08402175 0.05081963 0.0003448768 -0.12352284 0.10322998 0.10929774 -0.14237246
0.017064687 0.14794642 0.18329811 -0.016417023 0.033937793 0.028119277 0.0012305703 -0.101106666
-0.008685825 -0.0645979 -0.14514439 0.12640657 0.077619754 0.020943489 0.13369945 0.100173265
-0.009458132 -0.03729765 -0.19106591 0.07296174 -0.09519128 -0.082273364 -0.02735956 -0.026737832
-0.028551133 -0.016472599 -0.07924159 0.018881064 -0.07913801 0.06841669 -0.08537391 0.07592664
00000000: 299e 22be e89b 7f3c 5fe5 d9bd b5b3 c23c
00000010: c8b8 d33d e878 fb3c 0b51 fa3c 591f 6e3c
00000020: 982c 5bbd 6566 983c 6efc 4cbd c563 393e
00000030: 7162 2bbe 8094 6c3d 92a6 693d 3dbc 343e
00000040: 45c2 a3bd 156b a03d d226 03be e5a2 bcbd
00000050: 35d4 87bd 7c75 803d cfe7 693d e321 003e
00000060: b89a 553d a4f7 dd3d 448f 20bd f9d6 303c
00000070: ee77 bebd 27da 8c3d f722 933d b736 9abd
00000080: 70b0 8dbd 9ebe 9dbd 175c d1bd 1a11 41be
00000090: e453 2d3d 024d 033d 08ff 5c3d 033f 863d
000000a0: 1c9b 343e 5405 de3d 584e 4cbc 044f eb3d
000000b0: 829e 2cbe 1913 653e 2ccd bc3d 7334 b9bc
000000c0: e9e3 bdbd afdd 72bd f06c 1b3d e5c6 d73a
000000d0: c676 2cbd f8e3 063e 7baf 2cbd c8f3 2abe
000000e0: ea4c 9f3d 3972 12be f8a6 6abe 52f0 7b3c
000000f0: 6756 bd3c 42f3 b0bd f680 fcbc 6940 c2bd
00000100: ece0 07be 8e8b 883d aecb 363e 7419 27be
00000110: a527 a53d 69cc a1bd 447a b13c b3ad 62be
00000120: 3afd 83bd e9d8 c7bd 24c8 4f3c 359e 89be
00000130: 4e05 6c3c 9526 a13d 1b74 1dbe 49f4 993d
00000140: 4325 913d bdf6 92bd 0d0c 9ebd 9c0f 1ebc
00000150: 1556 d73d 0d48 993d 8b0b 663d 3237 ecbc
00000160: 47b2 3abe 1871 4e3d ac48 31be 91fa 513d
00000170: 5388 12bc 5da0 86bd 6d6b 83bc 1448 c0bd
00000180: e18a 17be c38b 1fbb bfdb 903d ca7e a3bd
00000190: 67fb 9b3d 87d6 3a3d cc9f 71bd bed9 d6bd
000001a0: 8646 e03b 9d8c cb3d c8fc d9bd ce18 1dbe
000001b0: f595 1a3e d9d9 3f3b 4371 00bc 5ef8 b03c
000001c0: 66b7 a03d 33ac cd3c 1405 26be fd2d 5e3e
000001d0: 90c6 44bc 146b 0f3c 93da 9fbd 7a5f a93d
000001e0: 1340 2f3d a032 fabc cac5 2dbd d82e 5d3c
000001f0: 266a 36be 8e71 4dbe 3afd 9ebd 62b0 d0bd
00000200: c775 073e d0c6 9abc f743 303d 3999 813d
00000210: ebe7 d33d d135 e73c 701a 05be f630 243e
00000220: 62c8 38be 23ea d7bd d015 0ebc 914e 973d
00000230: 80a2 733d 08f2 e2bd b073 953e 21bb e2bd
00000240: 55ac 37be fc08 4cbc bd6e bb3d 333c 773d
00000250: 1767 6d3c e930 09be ced8 f93c de47 683e
00000260: 28d2 fabc 99b1 c23d a8dc 1ebd 1638 443d
00000270: 0233 4a3d cc67 9e3d b361 5cbd 5312 433e
00000280: 5cad 0fbc accd cf3d 83bc 95bd d48a 44be
00000290: 5d7d 8a3d 3e46 2cbd 2f59 c6bb 9db3 a7bd
000002a0: 0b21 ecbb 3cef e23c 76d2 d43d fa30 52be
000002b0: 28c1 c33c 9ef4 c0bd b9ee 2a3e c399 a2bd
000002c0: d6bb 9f3d 2f7c 803d 74d4 d3bd 9a97 37be
000002d0: a73d 19be 9ad3 b8bd 60b5 98bd dd48 6b3e
000002e0: 1231 63bd de71 6ebc 983f a23d 6315 ec3d
000002f0: fbeb b63c 2e45 a3bc 483e e23d 3894 0bbe
00000300: 21ad 37be 9ff8 1cbd 87d7 0d3e a0ec ba3d
00000310: f9bc 66bd 7751 77bd da37 0fbe 1398 13be
00000320: d889 753c 4f9d 913d 6c7b 693d 9824 273e
00000330: c22b a1bc 0649 f0bc cd38 8e3d 3e37 27bd
00000340: 2e60 d8bd aff5 323c aa7b 50bd 6071 1bbe
00000350: b2bd e9bd 415f 443d 24f0 0fbc b49e 013d
00000360: 8e90 3cbe 9813 ac3d 3f28 503d 95d0 b439
00000370: 8bf9 fcbd 3d6a d33d 7ed7 df3d 16ca 11be
00000380: 3ecb 8b3c 447f 173e 80b2 3b3e fe7c 86bc
00000390: 5b02 0b3d 665a e63c 164b a13a 0311 cfbd
000003a0: fe4e 0ebc e74b 84bd bba0 14be b970 013e
000003b0: 1bf7 9e3d ae91 ab3c 82e8 083e a427 cd3d
000003c0: 48f6 1abc 6cc5 18bd c8a6 43be f76c 953d
000003d0: a5f3 c2bd f07e a8bd 2821 e0bc 4c09 dbbc
000003e0: 11e4 e9bc 8bf1 86bc 6a49 a2bd 76ac 9a3c
000003f0: 1c13 a2bd 0d1e 8c3d 84d8 aebd 6d7f 9b3d

fc3.bias f4 [10]
-0.024101214 0.2196947 0.045386147 0.045942932 -0.020988764 0.019897379 0.016767854 0.04104088
-0.024656255 -0.0030691861
00000000: e96f c5bc a6f7 603e d3e6 393d a82e 3c3d
00000010: a1f0 abbc d4ff a23c bd5c 893c 7b1a 283d
00000020: eafb c9bc 6624 49bb
