pytorch/models/mnist-image-CNN.pt (torch_old, 241854 bytes, 10 tensors)

conv1.weight f4 [6, 1, 3, 3]
0.83894545 1.0280209 0.67794204 0.80933607 0.6924022 0.44487 0.68666464 0.5057322
0.33526522 -0.3072746 0.033730745 0.28175786 -0.07126705 0.06501329 0.15499987 0.044782355
-0.2605261 0.0839253 -0.2899847 -0.26894787 0.05473389 0.32513058 -0.03829066 -0.2638811
-0.14125179 -0.15153386 0.047608066 -0.25159678 0.17923808 0.13130562 -0.1313921 -0.076112784
-0.31775722 -0.31211346 -0.19240327 -0.31048194 -0.22623764 -0.030005064 0.17486139 -0.01110051
0.35692602 -0.10111279 -0.055875763 0.39369062 0.06909222 0.34297618 0.021205477 -0.3240399
-0.16602036 -0.25962037 0.080835536 -0.25291488 -0.31726563 0.3245394
00000000: 21c5 563f 3096 833f 9c8d 2d3f a630 4f3f
00000010: 4541 313f 00c6 e33e 41c9 2f3f aa77 013f
00000020: e2a7 ab3e 1953 9dbe 4029 0a3d 9142 903e
00000030: 76f4 91bd b025 853d 49b8 1e3e b46d 373d
00000040: ad63 85be 07e1 ab3d e078 94be 89b3 89be
00000050: a530 603d 8477 a63e abd6 1cbd 6c1b 87be
00000060: 4fa4 10be b12b 1bbe ad00 433d 4bd1 80be
00000070: 308a 373e fb74 063e a78b 06be 05e1 9bbd
00000080: 13b1 a2be 56cd 9fbe 5d05 45be 7df7 9ebe
00000090: d7aa 67be 2ecd f5bc dd0e 333e eade 35bc
000000a0: 02bf b63e 3914 cfbd fcdd 64bd d191 c93e
000000b0: 3980 8d3d 939a af3e 1cb7 ad3c 8fe8 a5be
000000c0: 3e01 2abe f6ec 84be 1a8d a53d 0f7e 81be
000000d0: a470 a2be 072a a63e

conv1.bias f4 [6]
0.11754274 -0.3263451 0.19237101 -0.14492284 -0.1447744 0.1295737
00000000: 40ba f03d b416 a7be e8fc 443e a766 14be
00000010: be3f 14be f8ae 043e

conv2.weight f4 [16, 6, 3, 3]
0.11354671 -0.14932466 0.10386937 -0.036284506 -0.08424146 0.027068786 0.05443067 -0.09434344
-0.105859764 0.056526873 0.05826177 0.12634923 0.046372846 0.09884539 0.051357504 0.039956775
0.13410531 0.034104984 0.07887782 -0.024515951 -0.1323819 0.012237336 -0.0005302222 -0.07630149
-0.020456132 0.018875618 0.08519766 -0.067236006 -0.028033635 0.053765334 -0.0022764218 -0.08853647
-0.122415 0.11584261 -0.032247066 -0.090984195 -0.12687558 -0.0547367 0.01858159 0.040180482
-0.11497969 0.03440087 0.121976025 0.0034364623 -0.13282551 -0.046231575 -0.111513704 -0.12621905
-0.00549311 -0.078621686 0.09866437 -0.12164174 0.015758183 0.11702676 -0.0021225114 -0.15680967
-0.20645536 0.08449331 -0.058987707 -0.065929584 0.29128358 0.25567105 0.297366 0.10530078
-0.053558495 -0.07234895 -0.13471536 0.05157172 0.08297862 -0.08949275 -0.07558051 -0.12405833
-0.019385124 -0.033792943 -0.01710983 -0.10504695 0.042879965 -0.069322094 0.046478428 0.052519403
0.081916355 0.1179628 0.12311529 -0.11791825 -0.111874744 -0.0048564603 -0.10103811 0.10818161
0.0065282043 0.1287572 -0.053609323 0.041895445 -0.13198942 -0.030120391 0.04910269 -0.017971635
0.09598804 -0.08910712 0.06831738 -0.016432587 0.08391704 -0.124148756 -0.1284448 0.01781013
-0.008017189 -0.066616684 -0.13841045 -0.101609506 0.16829105 0.10109757 0.25848624 0.012241614
-0.100349806 0.23450209 -0.15639935 0.045980524 0.16379294 0.11034428 0.040824164 0.10866728
-0.08479817 -0.086716615 -0.03385103 -0.037916135 0.005873251 -0.00083606184 0.11314391 -0.039220065
0.11382608 -0.054749295 0.09086916 -0.072478965 0.0613614 -0.09396105 0.05567723 -0.05457728
0.04625671 -0.06929135 -0.051518075 -0.025677672 0.10294823 0.07773506 0.028508227 -0.133843
-0.098759435 -0.027669815 -0.11112273 -0.05550736 0.06857575 0.1019866 -0.036250263 -0.049360685
0.03736774 0.073216796 0.07826842 -0.05215069 0.10128807 0.15525392 -0.06969315 0.082714364
-0.008219565 0.091674685 0.024551898 -0.016583724 -0.025658952 0.049032647 -0.08590921 0.08186299
-0.10352549 0.099978216 -0.03054977 0.05435996 -0.08141407 0.1288007 -0.127782 0.07615738
-0.12395001 -0.080274425 0.043707646 -0.012707509 -0.118405715 -0.100940585 0.048974592 -0.011506443
0.1284053 -0.11126973 0.035036925 -0.028340226 -0.10322963 -0.005039616 0.073129244 -0.05424053
-0.048666004 -0.0952052 0.070393264 -0.024939047 -0.026865805 0.0352266 0.054820824 0.018968077
-0.016714994 -0.026449723 -0.011626499 -0.120708734 -0.06500504 -0.12973833 -0.07741213 0.04964148
0.05746323 -0.06773556 0.02414555 -0.042218134 -0.08678768 -0.0640033 0.039608352 -0.022374887
-0.033132676 0.092836566 -0.056679044 -0.04024901 0.0014836333 -0.0042118747 -0.105305776 -0.12779461
-0.028194876 -0.080937944 -0.12190376 -0.10435141 0.08664432 -0.04836112 0.0629529 0.095081486
0.109935835 0.032594517 -0.11467338 0.11537105 0.13195232 -0.0872999 0.06349432 0.044146944
-0.059610937 -0.08992435 0.08656134 -0.025975104 0.010094789 -0.11300997 0.096565105 0.079562105
-6.097626e-05 -0.09805347 -0.10927939 0.08727552 0.0031866005 -0.01095507 -0.0393519 0.03396032
00000000: 2d8b e83d 90e8 18be 77b9 d43d 109f 14bd
00000010: c986 acbd 5cbf dd3c b2f2 5e3d 2237 c1bd
00000020: 01cd d8bd b988 673d e5a3 6e3d b161 013e
00000030: 74f1 3d3d 746f ca3d 3f5c 523d b7a9 233d
00000040: e752 093e abb1 0b3d b28a a13d add5 c8bc
00000050: 1f8f 07be 1b7f 483c 9cfe 0aba f543 9cbd
00000060: 9e93 a7bc 0aa1 9a3c 1c7c ae3d 08b3 89bd
00000070: cba6 e5bc 0a39 5c3d 0530 15bb 9c52 b5bd
00000080: b7b4 fabd e43e ed3d 8015 04bd ec55 babd
00000090: aceb 01be 9733 60bd 6b38 983c 4a94 243d
000000a0: 797a ebbd ede7 0c3d 91ce f93d 4536 613b
000000b0: 6903 08be 525d 3dbd 4c61 e4bd 913f 01be
000000c0: 8cff b3bb 6804 a1bd 8c10 ca3d 4e1f f9bd
000000d0: 4e17 813c baab ef3d d519 0bbb b792 20be
000000e0: 0969 53be d40a ad3d 189d 71bd 1706 87bd
000000f0: 1f23 953e 51e7 823e 5b40 983e efa7 d73d
00000100: 2760 5bbd b02b 94bd d3f2 09be de3c 533d
00000110: b2f0 a93d fa47 b7bd f4c9 9abd 4b12 febd
00000120: 8dcd 9ebc 786a 0abd ea29 8cbc db22 d7bd
00000130: e7a2 2f3d bef8 8dbd 2a60 3e3d 961e 573d
00000140: c3c3 a73d 7b96 f13d df23 fc3d 207f f1bd
00000150: 961e e5bd f122 9fbb 12ed cebd 528e dd3d
00000160: 8cea d53b edd8 033e 7395 5bbd 8f9a 2b3d
00000170: 3c28 07be 0abf f6bc e71f 493d 4039 93bc
00000180: 6195 c43d cb7d b6bd fce9 8b3d a29d 86bc
00000190: b2dc ab3d b441 febd 0987 03be 8de6 913c
000001a0: 875a 03bc 546e 88bd 78bb 0dbe a518 d0bd
000001b0: 7d54 2c3e 3e0c cf3d 4f58 843e 0d91 483c
000001c0: 3384 cdbd 5121 703e 2727 20be 1356 3c3d
000001d0: 56b9 273e 2ffc e13d 3d37 273d f38c de3d
000001e0: aaaa adbd 7b98 b1bd 61a7 0abd f34d 1bbd
000001f0: 6674 c03b 292b 5bba ffb7 e73d 38a5 20bd
00000200: a61d e93d cc40 60bd 9c19 ba3d da6f 94bd
00000210: 1756 7b3d a76e c0bd cf0d 643d 6d8c 5fbd
00000220: ad77 3d3d a0e8 8dbd 9e04 53bd fb59 d2bc
00000230: 86d6 d23d 8f33 9f3d 168a e93c 240e 09be
00000240: 6342 cabd cfab e2bc 5094 e3bd af5b 63bd
00000250: 7171 8c3d 5ade d03d 287b 14bd 6e2e 4abd
00000260: ea0e 193d b0f2 953d 324b a03d f69b 55bd
00000270: 1f70 cf3d e2fa 1e3e 48bb 8ebd 2666 a93d
00000280: 5bab 06bc f0bf bb3d 1021 c93c 97da 87bc
00000290: b932 d2bc 75d6 483d 2bf1 afbd c9a7 a73d
000002a0: 2c05 d4bd 61c1 cc3d 8343 fabc 8da8 5e3d
000002b0: 6cbc a6bd 55e4 033e 49d9 02be 67f8 9b3d
000002c0: 81d9 fdbd eb66 a4bd ca06 333d 2833 50bc
000002d0: b27e f2bd f0b9 cebd 9599 483d 8585 3cbc
000002e0: ae7c 033e 62e1 e3bd e182 0f3d c329 e8bc
000002f0: 0e6a d3bd 5d23 a5bb c9c4 953d 512b 5ebd
00000300: 0156 47bd f2fa c2bd 582a 903d f94c ccbc
00000310: ad15 dcbc c449 103d cd8b 603d f162 9b3c
00000320: e2ed 88bc 17ad d8bc 127d 3ebc 2436 f7bd
00000330: 5d21 85bd 20da 04be 408a 9ebd dd54 4b3d
00000340: 905e 6b3d f1b8 8abd e3cc c53c ecec 2cbd
00000350: bdbd b1bd 2a14 83bd 5e3c 223d 8a4b b7bc
00000360: 21b6 07bd 1921 be3d 4928 68bd 25dc 24bd
00000370: 7976 c23a c403 8abb 8eaa d7bd 97dc 02be
00000380: f1f8 e6bc cbc2 a5bd aea8 f9bd 31b6 d5bd
00000390: 9472 b13d 4f16 46bd 73ed 803d 15ba c23d
000003a0: 0a26 e13d d481 053d e1d9 eabd a847 ec3d
000003b0: 821e 073e 4aca b2bd 4f09 823d 6dd3 343d
000003c0: 992a 74bd 422a b8bd 1247 b13d bec9 d4bc
000003d0: 9d64 253c c571 e7bd edc3 c53d 75f1 a23d
000003e0: c3c0 7fb8 42d0 c8bd dfcd dfbd 82bd b23d
000003f0: 49d6 503b e57c 33bc 752f 21bd fa19 0b3d

conv2.bias f4 [16]
-0.1418193 0.028089343 0.119486876 -0.12807445 -0.034700558 -0.041952383 0.18811478 -0.002000187
-0.05633389 -0.009588715 -0.110937 0.19657019 0.052419003 -0.09291782 0.06280985 -0.008571338
00000000: 1439 11be 9f1b e63c 89b5 f43d f325 03be
00000010: 2c22 0ebd 43d6 2bbd 29a1 403e 9215 03bb
00000020: 5dbe 66bd fc19 1dbc f032 e3bd b249 493e
00000030: 4fb5 563d b34b bebd 73a2 803d cc6e 0cbc

fc1.weight f4 [120, 400]
-0.047416877 -0.017680062 0.046923317 -0.0050216247 0.0057059405 0.03597183 0.041964762 -0.0042725005
0.0135057755 0.025259908 -0.010326727 0.0011335722 0.036325824 0.010965322 0.009595504 -0.03448664
-0.020415245 0.034233663 -0.01822549 -0.03577209 0.046236426 -0.046927165 -0.01648167 -0.009695102
-0.042784937 0.030919803 0.028908439 -0.028039167 -0.008960775 -0.03851642 -0.0057065096 -0.020487653
0.033315666 0.015109256 -0.035287954 0.00020994297 -0.0047056605 0.019539198 0.044421054 -0.0033360587
0.0043009897 -0.040119313 0.047515526 -0.034893394 -0.044290535 0.04488937 -0.008146214 -0.009164538
-0.03397453 0.044666953 -0.040596314 0.0015392294 0.003023626 0.022103924 0.043124802 0.024931183
-0.035076797 -0.01969085 0.016772736 -0.036329944 -0.030561173 -0.022855286 0.0021368538 -0.039408572
-0.0073472746 0.0033988103 0.042848542 0.022753278 0.033560712 -0.008007224 -0.0028259049 0.025932258
-0.047871646 0.015556433 -0.033336814 -0.022574658 -0.015958667 -0.019237442 -0.011458817 -0.038802717
-0.0013361825 -0.031715974 0.03300581 0.042499185 -0.045977075 0.0015305877 0.026044691 -0.04368075
0.0016444579 0.031819478 0.009588764 0.032226417 0.04298972 -0.03387808 -0.022455301 0.04622498
0.048659272 0.015798714 0.0011436486 0.008145339 -0.029699748 0.047127713 0.015520241 0.02137258
-0.039187852 0.00047384485 -0.008173809 -0.026332749 0.0038475648 0.04649216 0.005502908 0.0086434
0.03536379 -0.02230903 0.04516049 -0.03516831 -0.025969308 -0.041104887 -0.030914733 0.016709955
0.022752669 0.023093464 -0.030905202 -0.047233995 0.03638768 0.04184204 0.030303719 -0.035826925
-0.01104292 0.008082014 -0.045238625 -0.028093146 0.033918064 -0.024181766 0.020633856 0.03706686
-0.0115405815 0.010976503 -0.035804108 -0.025859565 -0.024559543 -0.014291221 0.040131863 -0.036652785
0.02142629 -0.024892176 0.0400754 0.0030696527 0.019853177 0.019535778 0.037175756 -0.029836575
-0.04276126 0.017888935 -0.02158577 -0.049286567 0.019506713 -0.021111744 -0.0038097068 -0.018395921
0.002538878 0.009460307 -0.015229025 -0.044354133 -0.020696023 0.04161115 -0.032552928 0.032823555
0.026782379 -0.02281986 0.040547118 0.051518884 -0.020784743 0.003981713 0.02109394 -0.014760491
0.032322027 0.021396535 0.038676888 -0.0023944357 -0.05237275 -0.038677562 -0.008028032 0.03824659
0.0064564757 -0.04680487 0.046199244 0.016448809 0.012389155 0.007652666 -0.044161014 0.047827754
-0.04324017 0.029852135 -0.018615568 -0.044539675 0.027154751 -0.009457874 -0.028079653 0.027081901
0.004052003 0.041074004 0.035415642 -0.04170556 0.017772436 -0.001059389 -0.023755988 -0.03348483
-0.011375022 -0.0038091014 -0.044920698 0.009869782 0.004015479 0.04975924 -0.050055906 -0.046479337
0.016272811 -0.024178062 -0.0015432811 -0.048542503 -0.031938944 -0.015210761 -0.025719918 -0.028603803
-0.0151753295 0.035468277 -0.00648212 -0.016803626 -0.005326522 -0.0154383825 0.011622756 -0.0030620147
-0.037438232 -0.042473078 -0.011840412 -0.0050084633 -0.0070879254 -0.027783148 -0.015005302 0.035447624
0.00937836 0.038835417 -0.045276463 0.037468463 -0.023970803 -0.019575477 -0.022249766 0.04443788
0.023682367 0.044714045 0.010633458 -0.034091868 -0.0027812864 -0.016020143 0.023314029 0.0013167112
00000000: 3338 42bd c7d5 90bc aa32 403d 718c a4bb
00000010: e6f8 ba3b 3357 133d 3ee3 2b3d 5500 8cbb
00000020: 5447 5d3c deed ce3c 6f31 29bc 5f94 943a
00000030: 63ca 143d e5a7 333c 7636 1d3c dd41 0dbd
00000040: df3d a7bc 9938 0c3d 9f4d 95bc c185 12bd
00000050: 6862 3d3d b336 40bd 9104 87bc 35d8 1ebc
00000060: 423f 2fbd 874b fd3c 64d1 ec3c 65b2 e5bc
00000070: 37d0 12bc 65c3 1dbd acfd babb b9d5 a7bc
00000080: 0276 083d d08c 773c 1a8a 10bd 2324 5c39
00000090: f131 9abb ab10 a03c daf2 353d c7a1 5abb
000000a0: 51ef 8c3b 2654 24bd a49f 423d 60ec 0ebd
000000b0: fe69 35bd ebdd 373d b377 05bc dc26 16bc
000000c0: e028 0bbd b2f4 363d 5248 26bd f8bf c93a
000000d0: 0728 463b 4a13 b53c a2a3 303d 7b3c cc3c
000000e0: b0ac 0fbd b54e a1bc fa66 893c b5ce 14bd
000000f0: 6d5b fabc 023b bbbc 750a 0c3b e26a 21bd
00000100: 68c1 f0bb 93be 5e3b f481 2f3d 1565 ba3c
00000110: f576 093d bb30 03bc d132 39bb e36f d43c
00000120: 0f15 44bd 69e0 7e3c 2f8c 08bd 7dee b8bc
00000130: c0bb 82bc d797 9dbc c3bd 3bbc 99ef 1ebd
00000140: d822 afba 9ce8 01bd 1a31 073d a013 2e3d
00000150: 7552 3cbd 009e c83a ad5b d53c 96ea 32bd
00000160: da8a d73a 2455 023d 311a 1d3c d9ff 033d
00000170: fd15 303d bec3 0abd 2ef4 b7bc 6856 3d3d
00000180: f24e 473d 4e6c 813c 7be6 953a 0774 053c
00000190: e34c f3bc fd08 413d 9c48 7e3c 8d15 af3c
000001a0: 7183 20bd 616e f839 71eb 05bc c7b7 d7bc
000001b0: 6d27 7c3b 906e 3e3d bd51 b43b 0c9d 0d3c
000001c0: 9fd9 103d 6dc1 b6bc 35fa 383d a50c 10bd
000001d0: 96bd d4bc 995d 28bd e540 fdbc 51e3 883c
000001e0: ce63 ba3c 812e bd3c e82c fdbc 6f78 41bd
000001f0: 3f0b 153d 8f62 2b3d 813f f83c 41bf 12bd
00000200: 5ded 34bc 6c6a 043c 234c 39bd 9923 e6bc
00000210: abed 0a3d d718 c6bc 5508 a93c 6bd3 173d
00000220: b514 3dbc cad6 333c 54a7 12bd 70d7 d3bc
00000230: 1831 c9bc ba25 6abc 4f61 243d 3b21 16bd
00000240: 3086 af3c adea cbbc 1a26 243d 3a2c 493b
00000250: 21a3 a23c 7f09 a03c 9b45 183d d56b f4bc
00000260: 6e26 2fbd d18b 923c a4d4 b0bc b6e0 49bd
00000270: 8bcc 9f3c 89f2 acbc 46ac 79bb 0bb3 96bc
00000280: 4e63 263b 67ff 1a3c 2983 79bc aeac 35bd
00000290: b58a a9bc 7470 2a3d 3856 05bd fe71 063d
000002a0: b866 db3c b7f0 babc bc14 263d 7705 533d
000002b0: c444 aabc 0879 823b 33cd ac3c fdd5 71bc
000002c0: 1a64 043d c947 af3c a86b 1e3d f7eb 1cbb
000002d0: cf84 56bd 5d6c 1ebd 0288 03bc 75a8 1c3d
000002e0: d890 d33b 77b6 3fbd 6b3b 3d3d a7bf 863c
000002f0: e2fb 4a3c 37c3 fa3b 2ee2 34bd 09e7 433d
00000300: 9b1c 31bd 778c f43c ad7f 98bc 3c6f 36bd
00000310: a473 de3c 33f5 1abc 4d07 e6bc ddda dd3c
00000320: aac6 843b 373d 283d fe0f 113d 73d3 2abd
00000330: 8097 913c 32db 8aba eb9b c2bc 6427 09bd
00000340: 4d5e 3abc 1ea2 79bb c4fe 37bd deb4 213c
00000350: 4794 833b 58d0 4b3d 6c07 4dbd 1e61 3ebd
00000360: 8f4e 853c 1211 c6bc ec47 caba 81d4 46bd
00000370: 69d2 02bd 8e36 79bc 94b2 d2bc 8652 eabc
00000380: f2a1 78bc 2f47 113d f767 d4bb c2a7 89bc
00000390: 1b8a aebb 45f1 7cbc 5f6d 3e3c 15ac 48bb
000003a0: d558 19bd 40f8 2dbd 4afe 41bc 091e a4bb
000003b0: d441 e8bb 7c99 e3bc ccd8 75bc 8731 113d
000003c0: b1a7 193c e311 1f3d d073 39bd 8878 193d
000003d0: 6b5e c4bc c05c a0bc 2445 b6bc 7f04 363d
000003e0: 8601 c23c 1326 373d f537 2e3c eaa3 0bbd
000003f0: 3e46 36bb ad3c 83bc 10fd be3c 7f95 ac3a

fc1.bias f4 [120]
-0.035377212 0.00456735 -0.020256389 -0.025230473 0.035806946 0.050187156 0.04840622 0.07470316
-0.03546143 -0.011674745 -0.015283734 0.022344194 -0.029023994 -0.029119896 0.022105142 -0.027160121
0.012430608 0.03779494 0.0139470855 0.033869967 0.04685823 -0.024242874 0.053404186 -0.020979533
0.004798766 -0.006319289 -0.0020823316 0.01805706 -0.0067466865 0.011337657 0.046105105 0.035780966
0.05283898 0.035867207 -0.0065873503 -0.004598468 0.013627241 0.03221014 -0.00029563074 -0.018674785
0.011845228 0.042528603 -0.028246753 0.019064743 -0.030477658 -0.024216454 0.047625132 -0.015002642
0.03401738 0.012209572 0.031983156 -0.009310096 0.01639462 0.050533835 -0.04620586 2.5348627e-05
-0.030750094 -0.021967806 0.027997715 -0.008681079 -0.04001642 -0.031288255 0.023988608 0.013782485
0.013834617 -0.023035446 -0.042033404 0.0010463689 -0.017943593 0.056531362 -0.01920043 0.015344361
-0.0018775206 0.03800525 -0.034689497 0.051039994 -0.04629273 -0.017967604 -0.035324413 0.002442819
0.03433476 0.016230179 -0.018875027 -0.01831168 -0.006355852 -0.013979248 -0.047156945 -0.029523928
0.03710972 0.003183842 0.002288806 0.048120506 0.05117395 0.014553029 -0.028700292 -0.011462551
0.036059156 -0.02184747 0.032984454 -0.008659479 -0.011630484 0.030691223 0.039889444 -0.029999567
0.028992342 -0.040883545 0.0035140747 0.015525272 0.049487226 -0.00691871 -0.027258884 -0.008713352
-0.008759688 0.01378818 -0.0016171128 0.035180036 -0.049311567 -0.0051770117 -0.0002868408 0.027744185
00000000: b2e7 10bd b5a9 953b baf0 a5bc 23b0 cebc
00000010: 4eaa 123d 0c91 4d3d 9a45 463d f8fd 983d
00000020: 0140 11bd 6e47 3fbc a068 7abc 2c0b b73c
00000030: bac3 edbc d98c eebc d815 b53c e77e debc
00000040: c0a9 4b3c dece 1a3d 5182 643c 3cbb 0a3d
00000050: 6aee 3f3d fe98 c6bc 59be 5a3d 45dd abbc
00000060: f83e 9d3b 0a12 cfbb ba77 08bb 66ec 933c
00000070: 4f13 ddbb 95c1 393c b5d8 3c3d 108f 123d
00000080: b06d 583d 7ee9 123d b3da d7bb bfae 96bb
00000090: cb44 5f3c c8ee 033d e3fe 9ab9 ddfb 98bc
000000a0: 7d12 423c 7932 2e3d bc65 e7bc aa2d 9c3c
000000b0: 48ac f9bc 9661 c6bc 9212 433d a4cd 75bc
000000c0: cf55 0b3d a80a 483c c500 033d 5f89 18bc
000000d0: 034e 863c 91fc 4e3d 5b42 3dbd c3a3 d437
000000e0: 9fe7 fbbc d4f5 b3bc 775b e53c 163b 0ebc
000000f0: 42e8 23bd 1d28 00bd c283 c43c efcf 613c
00000100: 97aa 623c d5b4 bcbc 382b 2cbd 5026 893a
00000110: 71fe 92bc 6e8d 673d 384a 9dbc ea66 7b3c
00000120: 2317 f6ba 65ab 1b3d 9316 0ebd 500f 513d
00000130: 729d 3dbd cc30 93bc 55b0 10bd b417 203b
00000140: 9ba2 0c3d 27f5 843c cd9f 9abc 6002 96bc
00000150: c044 d0bb 3709 65bc a427 41bd 2adc f1bc
00000160: 5d00 183d 01a8 503b cbff 153b 021a 453d
00000170: c79b 513d d46f 6e3c e01c ebbc 6ccd 3bbc
00000180: c4b2 133d 77f9 b2bc b51a 073d 7de0 0dbc
00000190: c98d 3ebc 296c fb3c 1d63 233d a7c1 f5bc
000001a0: 5981 ed3c 8175 27bd 644c 663b b65d 7e3c
000001b0: 1eb3 4a3d 59b6 e2bb 064e dfbc 72c2 0ebc
000001c0: cb84 0fbc d2e7 613c 4df5 d3ba f118 103d
000001d0: edfa 49bd eca3 a9bb 1f63 96b9 c647 e33c

fc2.weight f4 [84, 120]
-0.05980148 0.0626252 0.0859279 0.0073848623 0.032731663 -0.010365099 -0.09708355 0.0667023
-0.08712783 -0.00998269 0.1109031 0.049550336 0.01104495 -0.04738844 0.03497927 -0.063118406
-0.08308509 -0.072368436 0.026762744 0.019189328 0.08801057 0.015874121 -0.07552578 0.023108704
0.07499234 -0.051653795 0.012293537 0.042025812 0.08401144 0.011625506 -0.04672311 0.062424954
0.06685796 0.08206341 -0.026987994 0.086099155 0.042681847 0.03616764 0.058416337 -0.011136185
-0.008172979 -0.071579106 0.0036837533 0.06386611 0.05426087 -0.056937538 0.08191297 -0.08452895
-0.017302332 -0.0950396 -0.0053105853 -0.008503238 0.021366734 -0.107483715 0.044941906 -0.07530574
0.013346949 0.014762729 0.03352034 -0.024027146 -0.104662724 0.06718001 0.052704535 0.010267677
0.00587376 -0.037120238 0.024377404 -0.06857594 -0.021365613 0.07527956 0.06572478 0.013841417
-0.040837076 -0.020419145 0.07480158 -0.02916355 -0.023144148 -0.08180329 -0.034181744 -0.0025057045
0.08140514 -0.053517085 0.052490585 -0.03470511 0.07598655 0.024384594 -0.085365355 -0.0047929497
0.08226363 0.036911953 -0.015478111 0.0943803 0.08533906 -0.05016677 -0.014137268 -0.01723778
-0.07791156 -0.08495395 0.032934785 -0.089430176 0.046114642 0.036612306 -0.044034954 0.02876526
-0.010046787 0.0036320016 -0.029491983 0.06349861 -0.051615864 0.07275993 0.0765158 -0.04458
0.0114411935 -0.076624565 0.05235608 -0.03792888 -0.058844153 -0.07970228 0.09652275 0.067273274
-0.032176454 -0.044845212 -0.029296689 0.07062979 0.08696756 0.05820267 -0.05675739 -0.06428312
0.08269942 -0.074616976 0.024967156 0.027342498 0.07371749 0.058897927 0.027684279 -0.046363626
-0.024836384 -0.08822953 0.028937228 0.0019952953 0.08327502 0.068118885 0.060249135 0.03537275
0.06707972 -0.078924716 -0.007387258 0.011232503 0.031148568 -0.017182179 -0.015141532 0.06311336
0.08481979 -0.022522524 -0.0678611 0.051103905 -0.07335132 0.044457585 -0.010015272 -0.07156138
-0.030287456 0.008177571 -0.03817041 -0.06885354 0.055717856 0.074531645 -0.03086761 -0.08807477
-0.074883685 0.022108048 -0.087880574 0.0028324276 -0.04997198 -0.058768585 -0.04477006 0.06981178
-0.057002816 0.06793712 -0.0584968 -0.04550619 -0.006124869 0.023386084 0.022490822 -0.021890216
-0.040439676 -0.021288149 0.039727747 -0.018501088 -0.03383267 0.077683896 -0.0014595389 0.003569387
-0.0014658645 -0.07504223 0.045509174 0.023062088 0.041101888 0.035052583 -0.072496794 0.030483231
0.051135853 0.062127337 -0.021816656 -0.01058282 -0.037727118 -0.011366814 0.08048709 -0.06115041
0.07367265 0.08567344 0.01494278 -0.04871783 0.039935514 0.023371994 -0.044295657 0.026394576
-0.0581961 -0.08218019 -0.038663365 -0.08516835 0.07889326 -0.059735376 0.031500764 -0.0004756227
0.06461859 -0.05133011 -0.0208508 -0.032998968 0.07065515 -0.0845926 -0.03467289 -0.08557612
-0.061122082 0.038507015 -0.049165767 0.0015479997 0.037284687 -0.084030285 0.037618414 -0.042801652
0.027864002 0.05856594 0.07877673 0.05081277 0.031217525 -0.047441177 0.019944059 -0.013807753
-0.06474228 0.0428773 -0.08709226 0.077415235 0.02627092 -0.048967667 0.03475393 -0.0012572022
00000000: 66f2 74bd a441 803d f8fa af3d b7fc f13b
00000010: a311 063d 60d2 29bc bed3 c6bd 379b 883d
00000020: 1370 b2bd 708e 23bc 2a21 e33d 4bf5 4a3d
00000030: e1f5 343c 621a 42bd 6c46 0f3d 3944 81bd
00000040: 8428 aabd e735 94bd 8b3d db3c f032 9d3c
00000050: e33e b43d 720a 823c 43ad 9abd 774e bd3c
00000060: 9595 993d ee92 53bd d56a 493c 4223 2c3d
00000070: 310e ac3d e878 3e3c bb60 3fbd 4fb1 7f3d
00000080: d3ec 883d dc10 a83d ed15 ddbc c154 b03d
00000090: 29d3 2e3d 8524 143d f845 6f3d 8c74 36bc
000000a0: f5e7 05bc 1198 92bd 206b 713b 3ccc 823d
000000b0: a540 5e3d 5637 69bd fdc1 a73d 841d adbd
000000c0: 9fbd 8dbc 1fa4 c2bd 6b04 aebb 2a51 0bbc
000000d0: 4a09 af3c 6c20 dcbd 0115 383d e539 9abd
000000e0: 29ad 5a3c 60df 713c a04c 093d 94d4 c4bc
000000f0: 6959 d6bd ac95 893d b6e0 573d c239 283c
00000100: ac78 c03b 640b 18bd 1fb3 c73c 8b71 8cbd
00000110: f006 afbc 2c2c 9a3d b79a 863d 1cc7 623c
00000120: c744 27bd 0d46 a7bc 9231 993d 66e8 eebc
00000130: cc98 bdbc 7c88 a7bd 2802 0cbd bf36 24bb
00000140: bdb7 a63d bb34 5bbd 5e00 573d f226 0ebd
00000150: d69e 9b3d 33c2 c73c 08d4 aebd 2d0e 9dbb
00000160: d679 a83d fd30 173d e797 7dbc 754a c13d
00000170: 3fc6 ae3d ac7b 4dbd 00a0 67bc 3f36 8dbc
00000180: 1990 9fbd 56fc adbd a0e6 063d 2b27 b7bd
00000190: b5e2 3c3d c9f6 153d ff5d 34bd 1fa5 eb3c
000001a0: 479b 24bc e006 6e3b 2c99 f1bc 8f0b 823d
000001b0: 286b 53bd 2803 953d 51b4 9c3d 8599 36bd
000001c0: d873 3b3c 57ed 9cbd 5473 563d 505b 1bbd
000001d0: 9106 71bd f33a a3bd b8ad c53d 92c6 893d
000001e0: 75cb 03bd 9daf 37bd 9cff efbc 5aa6 903d
000001f0: 0c1c b23d ec65 6e3d 707a 68bd dea6 83bd
00000200: 505e a93d c9d0 98bd ec87 cc3c 60fd df3c
00000210: 32f9 963d f43e 713d 24ca e23c c9e7 3dbd
00000220: ac75 cbbc afb1 b4bd c40d ed3c 80c3 023b
00000230: 188c aa3d ea81 8b3d ccc7 763d 04e3 103d
00000240: 1861 893d 48a3 a1bd d010 f2bb 8808 383c
00000250: 482b ff3c a4c1 8cbc 3014 78bc 9441 813d
00000260: 00b6 ad3d 2881 b8bc c3fa 8abd 5452 513d
00000270: 3839 96bd 2819 363d 1817 24bc c68e 92bd
00000280: 661d f8bc 38fb 053c 9358 1cbd 1603 8dbd
00000290: 6838 643d 0ca4 983d 12de fcbc 8c60 b4bd
000002a0: 9e5c 99bd f01b b53c bbfa b3bd 40a0 393b
000002b0: 6baf 4cbd 54b7 70bd cf60 37bd 7af9 8e3d
000002c0: c97b 69bd 9e22 8b3d 579a 6fbd b364 3abd
000002d0: 20b3 c8bb 2c94 bf3c ac3e b83c 1c53 b3bc
000002e0: 13a4 25bd 7c64 aebc 90b9 223d 988f 97bc
000002f0: 2094 0abd bc18 9f3d 004e bfba 60ec 693b
00000300: 4022 c0ba beaf 99bd d467 3a3d b4ec bc3c
00000310: 745a 283d 4c93 0f3d 3379 94bd f8b7 f93c
00000320: d473 513d 3c79 7e3d d8b8 b2bc 9063 2dbc
00000330: c087 1abd e03b 3abc 6ad6 a43d da78 7abd
00000340: b0e1 963d 8e75 af3d 90d2 743c 598c 47bd
00000350: 6c93 233d a076 bf3c 5d6f 35bd 7039 d83c
00000360: 095f 6ebd 164e a8bd 7a5d 1ebd be6c aebd
00000370: ca92 a13d 15ad 74bd f206 013d 005d f9b9
00000380: c056 843d 853f 52bd 4ccf aabc ed29 07bd
00000390: a6b3 903d e33e adbd 2905 0ebd 8842 afbd
000003a0: 265b 7abd 88b9 1d3d 0b62 49bd 40e6 ca3a
000003b0: d4b7 183d 1218 acbd c415 1a3d c950 2fbd
000003c0: 0c43 e43c d7e2 6f3d b255 a13d 0d21 503d
000003d0: e5bb ff3c ae51 42bd b961 a33c ea39 62bc
000003e0: 9a97 84bd 1ca0 2f3d 6d5d b2bd e18b 9e3d
000003f0: 1d36 d73c 5292 48bd 235a 0e3d b5c8 a4ba

fc2.bias f4 [84]
0.0055201156 -0.08603374 -0.07657115 -0.059892133 -0.022320045 0.0030943921 0.050119203 -0.014875986
-0.063573055 0.0019753003 -0.057451878 0.086055554 0.02419089 -0.07023503 -0.028481351 0.018303243
-0.018692128 -0.016128397 0.01844624 -0.07742359 -0.040207796 0.002869152 0.0126747 0.07718236
0.103457525 0.0059824465 0.061865635 0.00611802 -0.04227931 0.052985333 0.110933565 0.13672827
-0.021675542 0.02900248 -0.037369866 0.040306322 -0.073652945 -0.064218625 -0.013565908 -0.074445285
0.07935575 0.066174224 -0.042405885 0.036483567 0.1114575 0.003467164 -0.081712596 -0.062087607
0.07874476 -0.016842468 0.04595433 0.095178634 0.08045994 0.028413346 0.05468234 0.080226675
-0.06475431 -0.012524055 0.13398741 0.039301004 0.041431352 0.04573729 0.051308475 -0.03362075
-0.0069534923 -0.034358513 0.04671625 0.09197307 -0.06436485 -0.03598596 -0.06388632 0.07540119
-0.045959905 0.038458694 0.051235963 0.09050687 -0.039175726 0.045523115 0.032584097 0.03100784
0.08906675 0.0075144377 -0.06503095 -0.08221928
00000000: 16e2 b43b 7532 b0bd 56d1 9cbd 7451 75bd
00000010: 87d8 b6bc 49cb 4a3b cb49 4d3d 68ba 73bc
00000020: 9732 82bd 0a74 013b a952 6bbd e53d b03d
00000030: f92b c63c 62d7 8fbd b951 e9bc aff0 953c
00000040: 3c20 99bc b31f 84bc 921c 973c 4290 9ebd
00000050: eeb0 24bd 6208 3c3b 8ba9 4f3c c911 9e3d
00000060: 8ae1 d33d 6608 c43b d266 7d3d ac79 c83b
00000070: 122d 2dbd 2607 593d 2331 e33d 7f02 0c3e
00000080: e890 b1bc 9c96 ed3c 2511 19bd 3e18 253d
00000090: 5bd7 96bd 0e85 83bd 8b43 5ebc c576 98bd
000000a0: 4485 a23d 5a86 873d cbb1 2dbd cb6f 153d
000000b0: d443 e43d 5c39 633b ef58 a7bd 934f 7ebd
000000c0: ef44 a13d 37f9 89bc 9c3a 3c3d 04ed c23d
000000d0: 2ec8 a43d 1bc3 e83c 97fa 5f3d e24d a43d
000000e0: e89d 84bd b231 4dbc ff33 093e 17fa 203d
000000f0: ecb3 293d 0657 3b3d d628 523d e9b5 09bd
00000100: 1fda e3bb 83bb 0cbd 8a59 3f3d 605c bc3d
00000110: b8d1 83bd 0466 13bd d5d6 82bd f06b 9a3d
00000120: 7440 3cbd dd86 1d3d cddc 513d aa5b b93d
00000130: ba76 20bd 7276 3a3d e776 053d 2704 fe3c
00000140: a168 b63d ac3b f63b f22e 85bd 9562 a8bd

fc3.weight f4 [10, 84]
-0.15487511 0.015601136 -0.106369406 0.027614847 0.10149255 0.0334903 0.02961413 0.014533945
-0.053503525 0.018696291 -0.0512531 0.1826593 -0.1616143 0.057758834 0.05704379 0.1732134
-0.07996038 0.07832924 -0.12603794 -0.09263866 -0.062348764 0.06272408 0.056335848 0.12359307
0.0516106 0.10838249 -0.038196735 0.010793442 -0.09280501 0.06690216 0.06995895 -0.07408294
-0.069184184 -0.0769597 -0.10142903 -0.18786642 0.042316888 0.032055862 0.05394501 0.066219606
0.17573057 0.10802079 -0.0124698505 0.114666894 -0.16701473 0.21839848 0.09263784 -0.02258818
-0.09215595 -0.05861095 0.03708903 0.0014656505 -0.04106296 0.12931256 -0.042066038 -0.1662293
0.07709979 -0.14372446 -0.23097716 0.01300997 0.021683494 -0.08650045 -0.02337414 -0.094849415
-0.13214049 0.06477267 0.17811903 -0.1633898 0.07974745 -0.077430286 0.01873073 -0.22293784
-0.064447835 -0.09825237 0.01403286 -0.2663676 0.01471102 0.075584315 -0.14877889 0.0758087
0.07439993 -0.07175968 -0.07717142 -0.01169935 0.10545321 0.07484446 0.056159433 -0.027634803
-0.18138316 0.04822708 -0.17040214 0.051200923 -0.008943031 -0.06839999 -0.016034698 -0.093971856
-0.14266081 -0.002366136 0.07073163 -0.08390541 0.076163106 0.045614745 -0.05489339 -0.10650141
0.008823993 0.09938929 -0.1069688 -0.15304856 0.15153858 0.0029274134 -0.009248626 0.021602806
0.07681899 0.024869664 -0.16388491 0.21386214 -0.012010232 0.008897326 -0.07812391 0.08394427
0.042785745 -0.030540477 -0.04242495 0.013458633 -0.18093526 -0.20098095 -0.07763143 -0.104076125
0.13338959 -0.023262748 0.043035153 0.06328481 0.105287634 0.030228682 -0.12942939 0.1594098
-0.17794809 -0.103645675 -0.0061098607 0.07555952 0.05948413 -0.11001276 0.29154152 -0.11018746
-0.17923409 -0.013574046 0.09132183 0.060360145 0.016361944 -0.13596338 0.028392646 0.22850004
-0.03211115 0.09181455 -0.04179601 0.055206664 0.04936505 0.0804718 -0.051667858 0.19331041
-0.0110415295 0.10218646 -0.07094592 -0.190135 0.06720538 -0.042059176 -0.0060487743 -0.08232564
-0.0064357244 0.027701966 0.103960864 -0.19612092 0.020049242 -0.0924595 0.16051841 -0.07933818
0.077995144 0.06679395 -0.104677945 -0.17155981 -0.14803144 -0.09050662 -0.07456459 0.23058496
-0.05546672 -0.014553515 0.06748908 0.10989291 0.020377925 -0.019930448 0.11314013 -0.13847223
-0.17140922 -0.03832304 0.1436536 0.09127157 -0.054579273 -0.0616219 -0.13971046 -0.1369054
0.014986478 0.06997837 0.056289643 0.16142593 -0.01967418 -0.029334785 0.06944572 -0.041825786
-0.109925 0.007887055 -0.050899185 -0.15278557 -0.10887643 0.04425398 -0.009931943 0.031646535
-0.1826738 0.08313754 0.044698887 0.0032794175 -0.121435374 0.102905296 0.11089372 -0.14347005
0.016969852 0.14807066 0.17677197 -0.02443644 0.032625217 0.030263288 -0.0019558584 -0.10110666
-0.015133368 -0.062654726 -0.1431003 0.1237446 0.08021443 0.021253038 0.12980168 0.09819341
-0.009458132 -0.040764675 -0.18428077 0.06958658 -0.09521844 -0.085913375 -0.02472888 -0.030650465
-0.025253411 -0.016472599 -0.079241574 0.02064971 -0.07744953 0.06841669 -0.0854076 0.07264774
00000000: 9597 1ebe e89b 7f3c 34d8 d9bd 8838 e23c
00000010: 53db cf3d 202d 093d 5599 f23c c91f 6e3c
00000020: 8326 5bbd f728 993c c5ee 51bd 0a0b 3b3e
00000030: 387e 25be 8794 6c3d c0a6 693d db5e 313e
00000040: 45c2 a3bd 156b a03d 1710 01be 56b9 bdbd
00000050: 6b61 7fbd 7c75 803d 6bc0 663d 5d1e fd3d
00000060: a365 533d a4f7 dd3d 2e74 1cbd fad6 303c
00000070: 8e10 bebd 0004 893d a346 8f3d ccb8 97bd
00000080: 70b0 8dbd 0c9d 9dbd 06ba cfbd 0e60 40be
00000090: 7954 2d3d 024d 033d 71f5 5c3d 259e 873d
000000a0: b7f2 333e 013a dd3d 584e 4cbc 7ad6 ea3d
000000b0: e905 2bbe daa3 5f3e e8b8 bd3d d90a b9bc
000000c0: 42bc bcbd 0912 70bd abea 173d 121b c03a
000000d0: a231 28bd 836a 043e 704d 2cbd 0338 2abe
000000e0: 7fe6 9d3d 812c 13be 4785 6cbe c527 553c
000000f0: 95a1 b13c 2627 b1bd 207b bfbc 6940 c2bd
00000100: d64f 07be 89a7 843d d664 363e a84f 27be
00000110: a252 a33d c593 9ebd 3071 993c d149 64be
00000120: 3afd 83bd 8a38 c9bd 15ea 653c 5661 88be
00000130: 7d06 713c f3cb 9a3d 7e59 18be 9741 9b3d
00000140: fe5e 983d bdf6 92bd 0d0c 9ebd a1ae 3fbc
00000150: daf7 d73d 0d48 993d 6f07 663d 6262 e2bc
00000160: 82bc 39be c289 453d e67d 2ebe 0fb8 513d
00000170: ca85 12bc 4b15 8cbd 335b 83bc 5174 c0bd
00000180: ad15 12be 2d11 1bbb bfdb 903d 99d6 abbd
00000190: 67fb 9b3d 87d6 3a3d e4d7 60bd 691d dabd
000001a0: 8292 103c 9d8c cb3d 7512 dbbd c3b8 1cbe
000001b0: ee2c 1b3e d9d9 3f3b 8d87 17bc 5ef8 b03c
000001c0: 4653 9d3d 77bb cb3c 72d1 27be adfe 5a3e
000001d0: 90c6 44bc 17c6 113c 6eff 9fbd f9ea ab3d
000001e0: 1b40 2f3d 0630 fabc c9c5 2dbd 9981 5c3c
000001f0: 1847 39be f3cd 4dbe 3afd 9ebd dd25 d5bd
00000200: 4897 083e 8591 bebc a145 303d 779b 813d
00000210: 0ba1 d73d 24a2 f73c 2389 04be 533c 233e
00000220: 0638 36be 2f44 d4bd 3a35 c8bb f3be 9a3d
00000230: a2a5 733d 5f4e e1bd ee44 953e f7a9 e1bd
00000240: 2489 37be ad65 5ebc f106 bb3d 333c 773d
00000250: 7c09 863c fc39 0bbe b297 e83c eafb 693e
00000260: fb86 03bd 4409 bc3d 4b32 2bbd 6220 623d
00000270: 0233 4a3d 66ce a43d ada1 53bd 2af3 453e
00000280: 88e7 34bc 2247 d13d 184c 91bd c0b2 42be
00000290: f9a2 893d 3e46 2cbd cc34 c6bb 589a a8bd
000002a0: c5e2 d2bb 3cef e23c 6fe9 d43d ecd3 48be
000002b0: 4f3e a43c 685b bdbd f05e 243e 0e7c a2bd
000002c0: ebbb 9f3d 44cb 883d 6461 d6bd 60ad 2fbe
000002d0: 8e95 17be 895b b9bd 52b5 98bd 771e 6c3e
000002e0: 1231 63bd de71 6ebc b737 8a3d 890f e13d
000002f0: 9bef a63c 2e45 a3bc 03b6 e73d aacb 0dbe
00000300: e685 2fbe 9ff8 1cbd ee19 133e 97ec ba3d
00000310: 848e 5fbd 3f67 7cbd 4210 0fbe ee30 0cbe
00000320: d889 753c d250 8f3d f88f 663d d74c 253e
00000330: bf2b a1bc 814f f0bc 8f39 8e3d 8451 2bbd
00000340: 5c20 e1bd b538 013c aa7b 50bd d273 1cbe
00000350: 9bfa debd a943 353d 97b9 22bc cc9f 013d
00000360: d70e 3bbe 0444 aa3d 2e16 373d 7feb 563b
00000370: 1cb3 f8bd 03c0 d23d 3f1c e33d d0e9 12be
00000380: 5c04 8b3c d69f 173e b603 353e ee2e c8bc
00000390: 05a2 053d b7ea f73c dc2d 00bb 0211 cfbd
000003a0: f2f1 77bc 1f51 80bd e388 12be cf6d fd3d
000003b0: 7747 a43d da1a ae3c bbea 043e a019 c93d
000003c0: 48f6 1abc dcf8 26bd 19b4 3cbe 6983 8e3d
000003d0: e301 c3bd 5af3 afbd 3894 cabc af16 fbbc
000003e0: 3ee0 cebc 8bf1 86bc 6849 a2bd 9529 a93c
000003f0: dc9d 9ebd 0d1e 8c3d 2eea aebd 57c8 943d

fc3.bias f4 [10]
-0.023296278 0.22098516 0.04355049 0.047119107 -0.019820258 0.016050192 0.016982138 0.040286392
-0.023366991 -0.0025751467
00000000: d6d7 bebc ef49 623e 0062 323d f7ff 403d
00000010: 185e a2bc b17b 833c 201e 8b3c 5803 253d
00000020: 226c bfbc cbc3 28bb
