py-dl-pytorch/models/cifar10-CNN.pt (torch_old, 334065 bytes, 10 tensors)

conv1.weight f4 [6, 3, 5, 5]
0	0xbdd3dd68	-0.10344964
1	0xbed6403e	-0.41845888
2	0xbf01e15c	-0.50734496
3	0xbeb93b35	-0.36177984
4	0x3e15e526	0.14638194
5	0xbe6f3e0c	-0.23363513
6	0xbf0d93d8	-0.55303717
7	0xbf0c63c4	-0.5483973
8	0xbf074b34	-0.52849126
9	0xbebeca31	-0.37263635
10	0x3ec44ae7	0.38338396
11	0x3ee3d032	0.44494778
12	0x3f01adfa	0.5065609
13	0x3e3b3029	0.1828009
14	0x3d0dfafa	0.034663178
15	0x3ea0270a	0.31279784
16	0x3f39c008	0.7255864
17	0x3f53b0ef	0.82691854
18	0x3f27013c	0.6523626
19	0x3ed09653	0.40739688
20	0xbe3ac0c0	-0.18237591
21	0xbb358070	-0.0027694963
22	0x3d67bfb1	0.056579296
23	0x3e0bea2f	0.13663553
24	0x3dba422c	0.090946525
25	0x3cbe44fe	0.023226257
26	0xbec80d3c	-0.39072597
27	0xbefcac85	-0.49350372
28	0xbe334ffd	-0.17510982
29	0x3e3b77e4	0.18307453
30	0xbe61e036	-0.22058186
31	0xbf11c9c6	-0.56948507
32	0xbf2c466e	-0.6729497
33	0xbef72f57	-0.48278305
34	0xbea2f495	-0.31827226
35	0x3e72f107	0.23724757
36	0x3efb86bc	0.49126232
37	0x3e9396f1	0.28826097
38	0x3e05c07f	0.13061713
39	0x3bb9209f	0.0056496407
40	0x3e7ff135	0.24994357
41	0x3f073449	0.52814156
42	0x3eee6727	0.46563074
43	0x3ee5d35f	0.44887826
44	0x3e695891	0.22787692
45	0xbe82eefb	-0.25572953
46	0xbe4701ef	-0.19434331
47	0xbddc1679	-0.10746474
48	0xbcd070ae	-0.025444355
49	0xbe2ec5c0	-0.17067623
50	0xbdd50a11	-0.10402311
51	0xbeba2f2e	-0.3636412
52	0xbe751c35	-0.23936541
53	0xbe74f24f	-0.23920558
54	0x3e80143b	0.25015435
55	0xbeb65f78	-0.35619712
56	0xbec39650	-0.38200617
57	0xbee958a8	-0.45575452
58	0xbf0de402	-0.5542604
59	0xbe9b9c19	-0.3039253
60	0x3e2a9195	0.16657098
61	0x3edcd9e7	0.43134996
62	0x3e5b2ba9	0.21403374
63	0x3e54cb83	0.20780759
64	0x3d928f78	0.07156271
65	0x3e93f642	0.28898817
66	0x3f0eeb39	0.5582767
67	0x3ec841b1	0.3911262
68	0x3ef461ac	0.47730768
69	0x3da310fc	0.07962224
70	0xbe5132a6	-0.20429477
71	0xbe3f8c4c	-0.18705863
72	0xbd5feb1b	-0.054667573
73	0xbdc6e298	-0.09711188
74	0xbe4dc5eb	-0.20095031
75	0x3d90438d	0.07044134
76	0x3e98fff0	0.29882765
77	0x3e05bf9c	0.13061374
78	0xbd41d161	-0.04731882
79	0x3d9eea9d	0.07759593
80	0x3eed77e9	0.46380547
81	0x3f33b8e0	0.7020397
82	0x3eccffbe	0.40038866
83	0x3a3dc6a2	0.00072393764
84	0x3e689bbc	0.22715658
85	0x3f4c7b2a	0.79875433
86	0x3f67fb95	0.9061826
87	0x3f09767f	0.53696436
88	0x3e0f49a6	0.13992938
89	0x3d4d55dd	0.050130714
90	0x3f52df8d	0.8237236
91	0x3f742af3	0.95378035
92	0x3f1ce7db	0.61291283
93	0x3db7d726	0.08976583
94	0xbbf6fc24	-0.0075373817
95	0x3f208f1c	0.6271837
96	0x3f1c7322	0.6111318
97	0x3f1410e4	0.57838273
98	0x3e5abb81	0.2136059
99	0x3d6a803e	0.057251208
100	0x3cfb9e7e	0.030715223
101	0x3e50740a	0.20356765
102	0xbe72fb7d	-0.23728748
103	0xbee4d537	-0.4469392
104	0xbe1ba4a8	-0.1519953
105	0x3d6e11f2	0.058122583
106	0x3e4918e9	0.19638409
107	0xbc077503	-0.008267644
108	0xbf29752f	-0.6619443
109	0xbeac9f44	-0.3371526
110	0x3e076462	0.13221887
111	0x3e1d34bd	0.1535215
112	0xbe1236be	-0.14278695
113	0xbf27941c	-0.6546037
114	0xbeeb3e1a	-0.45945817
115	0x3e1a4f9d	0.15069433
116	0x3e5a7486	0.21333513
117	0x3ba8af57	0.0051478553
118	0xbf12cbd1	-0.5734225
119	0xbf155cb7	-0.58344597
120	0xbd598d95	-0.05311354
121	0x3e19294b	0.14957158
122	0x3dc4ba06	0.09605794
123	0xbeca4e4d	-0.39512864
124	0xbe704fbd	-0.23467918
125	0x3d1146be	0.035467856
126	0x3e1fc787	0.15603457
127	0x3e23d05d	0.15997453
128	0xbe1735b9	-0.14766587
129	0x3d69bf6f	0.05706733
130	0xbdf7d4f7	-0.12101167
131	0x3dd4ea66	0.103962705
132	0xbe5105cf	-0.20412372
133	0xbf0fb5c7	-0.56136745
134	0xbe20b921	-0.15695621
135	0x3bca4beb	0.006173601
136	0x3e185050	0.14874387
137	0xbde976e0	-0.11399627
138	0xbf39d265	-0.7258666
139	0xbefecaad	-0.49764004
140	0xbcdce1f3	-0.02696321
141	0x3b65ca53	0.0035063222
142	0xbe7a89de	-0.24466655
143	0xbefa1b40	-0.48848915
144	0xbf100399	-0.5625549
145	0xbd5dda45	-0.054163236
146	0xbe7cad4e	-0.24675485
147	0xbd601119	-0.054703806
148	0xbeed11f8	-0.46302772
149	0xbeb04e6b	-0.34434828
150	0x3d3b5e6b	0.04574434
151	0x3d99c920	0.07509065
152	0x3e83f01f	0.25769135
153	0x3d6bd7f4	0.057578996
154	0x3c7d6328	0.015465535
155	0x3e32c24a	0.17456928
156	0x3e87ee07	0.26548788
157	0x3e272419	0.16322364
158	0x3e5ba763	0.21450572
159	0xbd7890d1	-0.060684983
160	0x3c82ab0d	0.015950704
161	0x3c6d69ad	0.014490527
162	0x3decad3a	0.11556478
163	0x3d51daf5	0.051234204
164	0xbdb86278	-0.090031564
165	0xbe920cf1	-0.28525499
166	0xbe6ad270	-0.22931838
167	0xbe6d7d31	-0.23192288
168	0xbe165857	-0.14682136
169	0xbe323fb5	-0.17407115
170	0xbe83601c	-0.25659263
171	0xbe68d5b3	-0.2273777
172	0xbea57240	-0.32313728
173	0xbd1190b1	-0.03553838
174	0xbe155126	-0.14581737
175	0xbe9d3569	-0.3070481
176	0x3d60bc53	0.0548671
177	0x3e1579e0	0.14597273
178	0x3d090a9f	0.033457395
179	0xbe69a3a5	-0.22816332
180	0xbd987745	-0.07444624
181	0x3e682082	0.22668651
182	0x3e8f8ca8	0.28037
183	0x3cc49ef8	0.024001583
184	0xbd9ea877	-0.07746976
185	0xbe7700f5	-0.24121459
186	0x3d19171e	0.037375562
187	0xbdc245ad	-0.09485946
188	0xbe32d313	-0.17463331
189	0xbe800d43	-0.25010118
190	0xbf0cef26	-0.5505241
191	0xbea8dc58	-0.3298061
192	0xbedb6241	-0.428484
193	0xbeab4f8e	-0.33459133
194	0xbe9682c6	-0.29396647
195	0xbf2bc608	-0.67099047
196	0xbf27aad9	-0.6549507
197	0xbf00a037	-0.5024447
198	0xbf04a451	-0.51813227
199	0xbe8bf2c6	-0.2733366
200	0x3dcc7729	0.099836655
201	0x3f274dee	0.65353286
202	0x3f0f28cb	0.5592162
203	0x3f0a0a99	0.5392242
204	0x3e9aac87	0.30209753
205	0x3ee87914	0.45404875
206	0x3f431a13	0.7621166
207	0x3f52072c	0.82042193
208	0x3f232941	0.63734823
209	0x3edc851d	0.43070307
210	0x3ecf5c31	0.40500024
211	0x3f244194	0.64162564
212	0x3f128302	0.5723115
213	0x3f0aa4d7	0.54157776
214	0x3e86b0f7	0.26306888
215	0x3e5f1546	0.21785459
216	0x3e869b76	0.26290482
217	0x3e97a0db	0.2961491
218	0x3e37e004	0.17956549
219	0x3e86a96c	0.26301134
220	0xbdc5eb31	-0.09664
221	0xbd6c3860	-0.05767095
222	0xbdbec8d8	-0.09315652
223	0xbd45b026	-0.04826369
224	0x3de4ae85	0.111660995
225	0xbe33671b	-0.175198
226	0xbe06adae	-0.13152191
227	0xbea993b2	-0.33120495
228	0xbeacfef1	-0.33788255
229	0xbecc4131	-0.39893487
230	0xbe15c279	-0.14624967
231	0xbdc0cddc	-0.094142646
232	0xbe1483ef	-0.14503454
233	0xbe21e020	-0.15808153
234	0xbe7a4eb9	-0.24444093
235	0x3be66be2	0.0070319036
236	0x3e0f9307	0.1402093
237	0xbe1d924d	-0.1538784
238	0xbe4b229d	-0.19837423
239	0xbe87dcdc	-0.2653569
240	0xbd556106	-0.052094482
241	0x3d39083d	0.045173872
242	0x3d3fa78a	0.046790637
243	0xbdef9186	-0.11697678
244	0xbd635852	-0.05550415
245	0x3b40f5b3	0.0029443323
246	0x3d6e3522	0.05815614
247	0x3d03eaa0	0.032206178
248	0x3c00bf9d	0.007858184
249	0x3db9a484	0.09064582
250	0x3d59a611	0.05313689
251	0x3eb122f7	0.3459699
252	0x3df7ade5	0.120937146
253	0x3cb824ad	0.022478426
254	0x3e31d1c1	0.17365171
255	0x3e9c9f43	0.30590257

conv1.bias f4 [6]
0	0x3e454da7	0.19267903
1	0x3e4c71f6	0.19965348
2	0xbea8a8b2	-0.32941204
3	0xbe86ed77	-0.26353046
4	0xbde0fa75	-0.10985271
5	0xbd5a6d9e	-0.053327195

conv2.weight f4 [16, 6, 5, 5]
0	0xbd3c578d	-0.045981932
1	0xbd191b84	-0.037379757
2	0x3db46832	0.08808936
3	0x3dc272cb	0.09494551
4	0xbc8d346c	-0.01723691
5	0x3ca8c7c9	0.020603077
6	0xbd4bd0c2	-0.049759634
7	0xbd5dd9ed	-0.05416291
8	0xbc86af6f	-0.016441075
9	0x3dbeb281	0.09311391
10	0x3df4913e	0.11941765
11	0x3d684bc6	0.05671289
12	0xbc60618d	-0.013695133
13	0xbb79bbf0	-0.0038106404
14	0xbda87499	-0.08225364
15	0xbdee6131	-0.116396315
16	0xbc163bf9	-0.009169572
17	0x3dd0e5b8	0.102000654
18	0x3ddb1bcb	0.106986605
19	0xbc726f80	-0.0147970915
20	0x3d386292	0.04501588
21	0x3c058bf6	0.008151045
22	0x3d0ba268	0.03409043
23	0xbc03934a	-0.008030722
24	0x3d57238a	0.052524127
25	0xbd887773	-0.06663408
26	0x3d118e88	0.03553632
27	0x3bd8eeed	0.006620279
28	0x3c909963	0.017651265
29	0x3c906283	0.017625099
30	0x3d7d185d	0.061790813
31	0xbcb0c151	-0.021576555
32	0xbda2ab4e	-0.0794283
33	0xbc074a01	-0.00825739
34	0x3c29252a	0.010323802
35	0xbb810a70	-0.003938012
36	0xbd434212	-0.04767043
37	0x3d645b34	0.05575104
38	0xbd747805	-0.059684772
39	0xbba7049e	-0.005096986
40	0xbbf791b6	-0.007555212
41	0x3d96ffd3	0.07373013
42	0xbb31c67b	-0.002712636
43	0xbd23eee9	-0.040022764
44	0x3d12b565	0.035817523
45	0x3b3d0fb6	0.0028848476
46	0xbc9b1920	-0.018932879
47	0xbcf7528a	-0.030190725
48	0x3da5bb00	0.08092308
49	0xbc36018a	-0.011108765
50	0x3dc9e55f	0.09858202
51	0x3de67889	0.11253459
52	0x3cd5919b	0.026070407
53	0xbcca31c6	-0.024681937
54	0x3d48d352	0.049029656
55	0xbd87be29	-0.06628067
56	0x3d5acce0	0.05341804
57	0x3d526463	0.051365267
58	0x3dfeb4e5	0.12436847
59	0x3e23c355	0.15992482
60	0xbd99416a	-0.0748318
61	0xb8e5c4d4	-0.00010956233
62	0x3bf89db6	0.00758716
63	0xbcd77868	-0.026302531
64	0x3d2d1df9	0.042264912
65	0xbd8e6dd9	-0.069545455
66	0xbd937fdd	-0.07202122
67	0x3d5aa2f4	0.05337806
68	0xbd9de380	-0.07709408
69	0x3d22cbd7	0.039745178
70	0xbdb7a125	-0.08966283
71	0xbcc21c28	-0.023695067
72	0xbd5c7db1	-0.053830806
73	0x3c3d21dc	0.011543717
74	0x3d5abdea	0.053403772
75	0xbcc3b3c1	-0.023889424
76	0x3cfb5a7a	0.030682791
77	0x3ce2f53d	0.02770483
78	0x3bdd6ec5	0.0067575895
79	0xbcf3a61e	-0.029742297
80	0xbcdd99cd	-0.027050877
81	0xbb7e28f2	-0.003878173
82	0xbdd58f2d	-0.10427699
83	0xbd3758a0	-0.044762254
84	0x3da9b4d1	0.08286441
85	0x3d2683df	0.040653106
86	0xbbdfcfe1	-0.006830201
87	0xbd7c4b57	-0.061595287
88	0xbd4194d9	-0.047261093
89	0xbdd16a3e	-0.10225342
90	0xbd9a6f2e	-0.07540737
91	0x3ce91e82	0.02845693
92	0xbdc0a86f	-0.09407126
93	0x3cdb0f8b	0.02674081
94	0xbde3327e	-0.11093615
95	0x3d3017d4	0.042991474
96	0xbe09cd21	-0.13457157
97	0xbe0b561d	-0.13607068
98	0xbd044439	-0.032291625
99	0xbdff5341	-0.12467051
100	0x3d940952	0.0722834
101	0xbd253225	-0.040331025
102	0xbc6b7ffc	-0.014373776
103	0x3c84d032	0.016212557
104	0x3b267d46	0.0025404259
105	0x3bae2b49	0.0053152186
106	0x3d63b2a6	0.055590294
107	0x3bfd83d0	0.0077366605
108	0x3cd30993	0.025761401
109	0xbc943210	-0.018090278
110	0xbc996e99	-0.018729495
111	0x3d98636d	0.07440839
112	0xbd05b755	-0.032645542
113	0x3d7b19cb	0.061303895
114	0x3d5f1aa4	0.054468766
115	0xbc814151	-0.015778216
116	0xbd7e5e94	-0.062101915
117	0xbc59fb13	-0.01330449
118	0x3d8e2207	0.06940084
119	0xbd6c3253	-0.05766518
120	0x3d494c3a	0.04914496
121	0x3d93dbf2	0.072196856
122	0x3c86e9f4	0.01646898
123	0x3d0f9742	0.03505636
124	0x3d799bba	0.060939528
125	0xbd39e583	-0.045384895
126	0xbba76f2f	-0.0051096897
127	0xbd19b003	-0.037521373
128	0x3d58e201	0.05294991
129	0x3b97e69f	0.0046356465
130	0xbd85fb40	-0.06542063
131	0xbd305a86	-0.04305508
132	0x3d22f101	0.03978062
133	0x3cb4c636	0.02206717
134	0xbd87a129	-0.06622536
135	0xbd838f5c	-0.06423828
136	0x3d29195a	0.041283943
137	0xbc9d2219	-0.019181298
138	0x3d840f4d	0.06448231
139	0xbd740342	-0.05957342
140	0x3d028123	0.031861436
141	0xbcd64012	-0.026153598
142	0xbd2658e5	-0.04061212
143	0xbd4d23c6	-0.050082944
144	0xbd6933a2	-0.056934007
145	0xbd35be43	-0.0443709
146	0xbc7d6394	-0.015465636
147	0x3bba423b	0.005684165
148	0xba684d46	-0.00088616123
149	0xbd57d205	-0.052690525
150	0x3d87ac82	0.066247
151	0x3d70e2ba	0.058809973
152	0x3cb30b9a	0.021856118
153	0x3db1b530	0.08677137
154	0x3ddd45a0	0.108042955
155	0x3e18ad1c	0.14909786
156	0x3dade0c7	0.084901385
157	0xbcaf512b	-0.021401009
158	0xbdbc7b22	-0.09203173
159	0xbe3fa3a8	-0.18714774
160	0x3c69aa57	0.014261804
161	0xbdfd2ec4	-0.123624355
162	0xbe3b4392	-0.18287495
163	0xbe539bb0	-0.20664859
164	0xbea51eb5	-0.3224999
165	0x3a91eb93	0.0011132829
166	0xbddb2613	-0.107006215
167	0xbd942e41	-0.07235385
168	0xbe58ece5	-0.21184118
169	0xbe539955	-0.2066396
170	0xbdb271dd	-0.08713124
171	0xbe4c5a33	-0.19956283
172	0xbe9cea86	-0.30647677
173	0xbe34dcd6	-0.17662367
174	0xbe386bac	-0.18009824
175	0xbe05e505	-0.13075645
176	0xbdbad246	-0.09122138
177	0xbd84ca07	-0.06483846
178	0x3d7161a4	0.058931008
179	0x3da563f9	0.08075709
180	0xbe6fa80c	-0.23403949
181	0xbc11ccae	-0.008898897
182	0x3db6b064	0.089203626
183	0x3d7bf83b	0.061516028
184	0x3e3bf77f	0.18356131
185	0xbe877309	-0.26454952
186	0x3ccbc5df	0.024874626
187	0x3ddae638	0.10688442
188	0x3c069b4a	0.008215735
189	0x3e6e2edc	0.23260063
190	0xbdc612f3	-0.09671583
191	0xbe12b51a	-0.14326897
192	0x3dfb90e3	0.12283494
193	0xbe268929	-0.1626326
194	0x3e505dcf	0.20348285
195	0xbe1369d8	-0.14395845
196	0xbe1ee177	-0.15515696
197	0x3dd50909	0.10402114
198	0x3c92cb02	0.017919067
199	0x3e8600e4	0.26172554
200	0xbdb96409	-0.09052283
201	0x3d827250	0.0636946
202	0x3e0b2e02	0.1359177
203	0x3e17eadb	0.14835684
204	0x3e76fd44	0.2412005
205	0xbd559ee3	-0.05215348
206	0xbc439398	-0.011937045
207	0xbb90555f	-0.0044047083
208	0xbd52bb50	-0.051448166
209	0x3d71bb8c	0.05901675
210	0x3d041e16	0.032255255
211	0xbd4fd4d6	-0.050740086
212	0xbcd40497	-0.025881095
213	0xbde6cca9	-0.112695046
214	0x3dc1578b	0.094405256
215	0x3c8f214a	0.017471928
216	0xbda7916f	-0.08182036
217	0xbe5017f2	-0.20321634
218	0xbeaa5eed	-0.33275548
219	0xbe68ddd9	-0.22740878
220	0xbd8a7254	-0.067600876
221	0xbd4199c0	-0.047265768
222	0xbdf10eee	-0.11770426
223	0xbe3ac10a	-0.18237701
224	0xbe814552	-0.252482
225	0xbe948760	-0.29009533
226	0xbd94a7e8	-0.07258588
227	0xbd683bf4	-0.0566978
228	0x3e29e944	0.1659289
229	0x3e72e41f	0.23719834
230	0x3cfcf1a9	0.030876951
231	0xbdd06212	-0.101749554
232	0x3b6e43ba	0.0036356286
233	0x3b38cf9d	0.002819992
234	0x3e8eeffa	0.27917463
235	0x3d8704ae	0.065926895
236	0xbd812a4d	-0.06306896
237	0xbbfb3178	-0.0076658092
238	0xb8ba4d7f	-8.883606e-05
239	0x3e64ad0b	0.22331636
240	0x3de7f219	0.11325473
241	0xbd14cea1	-0.03632987
242	0x3c3d568d	0.01155628
243	0x3d49984e	0.049217515
244	0x3e881638	0.26579452
245	0x3df055ba	0.11735101
246	0x3d0e7d83	0.034787666
247	0x3c2e3470	0.010632619
248	0x3c723240	0.014782488
249	0x3e2976a0	0.16549158
250	0xbccbee13	-0.024893796
251	0xbd12a026	-0.03579726
252	0x3d28c61a	0.04120455
253	0x3d1e4de7	0.038648512
254	0xbda00bfd	-0.078147866
255	0x3d1b76c4	0.03795506

conv2.bias f4 [16]
0	0x3bd64a2b	0.006539603
1	0x3efcaaac	0.49348962
2	0x3df46aba	0.11934419
3	0xbea620e9	-0.32446983
4	0xbeec7355	-0.4618174
5	0xbe33b121	-0.17548038
6	0x3e62ae9c	0.2213692
7	0x3de3a120	0.111147165
8	0x3e76884b	0.24075429
9	0x3e39accd	0.18132325
10	0xbdd21a26	-0.10258894
11	0xbf340cb9	-0.70331913
12	0xbe5f7869	-0.21823277
13	0x3dbd2295	0.092351116
14	0xbee610fd	-0.44934836
15	0x3f35e05d	0.71045476

fc1.weight f4 [120, 576]
0	0xbcf1e323	-0.029527253
1	0x3cc2e4ae	0.023790684
2	0xbc98db72	-0.018659327
3	0x3ce55e8f	0.02799919
4	0xbcd8d5dc	-0.026469164
5	0x3bd3d39e	0.0064644357
6	0xbb8bd4c1	-0.0042673056
7	0x3cc8dbef	0.024518935
8	0xbcc617bb	-0.024181237
9	0x3cb0056e	0.021486964
10	0x3c3e4715	0.011613627
11	0xbd03665a	-0.032080032
12	0x3c2871e6	0.010281062
13	0xbc862d9d	-0.016379172
14	0x3ccf4065	0.02529926
15	0xbb466fb0	-0.0030278973
16	0xbbdc2938	-0.006718781
17	0x3ceb68ec	0.028736554
18	0x3c1fcbc4	0.009753171
19	0xbd08ca7e	-0.033396237
20	0xbcd86c17	-0.026418729
21	0xbcaba38a	-0.020952005
22	0x3caf8e1e	0.021430071
23	0xbd0bcfef	-0.034133848
24	0x3d1ab970	0.037774503
25	0x3cd71142	0.026253346
26	0x3cbdc343	0.023164397
27	0xbca09af3	-0.019605136
28	0xbc96d464	-0.018411823
29	0xbd2203d0	-0.039554417
30	0xbd1ecf81	-0.03877211
31	0xbca83bef	-0.020536391
32	0xbc05fef0	-0.008178458
33	0x3c45beae	0.012069387
34	0x3c53f70f	0.012937321
35	0x3c7a7619	0.015286946
36	0xbd2c456e	-0.0420584
37	0x3cc0e0c6	0.02354468
38	0xbdce8acf	-0.100850694
39	0xbcd95ef0	-0.026534528
40	0xbc33950c	-0.0109608285
41	0xbcfaf617	-0.030634923
42	0x3d26d0f9	0.040726636
43	0x3dca91c4	0.09891084
44	0x3b1665c4	0.002294884
45	0x3c7171fd	0.01473665
46	0x3b6dbe48	0.0036276747
47	0xbcf68844	-0.030094273
48	0xbd7f9496	-0.062397562
49	0x3cf48e6b	0.029853066
50	0x3d0d20d0	0.03445512
51	0x3d043f9f	0.032287236
52	0xbd4fbc23	-0.05071653
53	0xbd93aa0f	-0.072101705
54	0xbda3a4c6	-0.079904124
55	0x3c88440b	0.016634008
56	0x3c945957	0.018109007
57	0x3d2b0e28	0.041761547
58	0x3da173dd	0.07883427
59	0xbd8aafea	-0.06771834
60	0xbd4649ff	-0.048410412
61	0xbd013ca9	-0.03155199
62	0xbd48f5e9	-0.049062643
63	0xbb217ed4	-0.0024642246
64	0xbcd309fa	-0.025761593
65	0xbd9d4dd6	-0.07680862
66	0x3c1247ac	0.008928221
67	0x3d8e02b6	0.06934111
68	0x3cd929e1	0.026509227
69	0x3b8d6504	0.0043150205
70	0xbb94e74c	-0.0045441743
71	0x3d76088b	0.06006674
72	0xbc752f4b	-0.014964889
73	0xbc800663	-0.015628045
74	0xbdcbf838	-0.09959453
75	0xbca4d3b5	-0.020120481
76	0xbd198133	-0.03747673
77	0xbce09ba8	-0.027417973
78	0x3bf497dc	0.007464392
79	0xbd645e74	-0.05575414
80	0xbd705b83	-0.058681022
81	0xbda6c19c	-0.08142397
82	0xbdb8f272	-0.09030618
83	0xbcdaea5b	-0.026723078
84	0x3d26c78c	0.040717646
85	0x3cf1e58b	0.0295284
86	0xbccd0d56	-0.025030773
87	0xbce32afa	-0.027730454
88	0xbd77c215	-0.060487825
89	0xbd461974	-0.048364118
90	0xbc786473	-0.015160668
91	0xbd88be02	-0.06676866
92	0xbd62a3c5	-0.055331964
93	0x3d5b1a5e	0.053491943
94	0xbd6dfb63	-0.05810107
95	0xbc8b479e	-0.017001923
96	0x3d024e02	0.031812675
97	0xbc388af1	-0.011263595
98	0xbd37fe46	-0.04492023
99	0xbcc16c5d	-0.023611242
100	0x3c2cf771	0.0105570415
101	0x3b5fa05d	0.0034122684
102	0x3d9ae3ac	0.07562956
103	0x3d08b5a1	0.03337634
104	0xbbe7ea86	-0.007077518
105	0xbb272a9b	-0.0025507573
106	0x3c720481	0.014771582
107	0x3d5eae5f	0.054365512
108	0x3d63ba95	0.05559786
109	0x3d62010e	0.055176787
110	0x3ce53593	0.027979648
111	0x3c8cf198	0.017205045
112	0x3de98d5b	0.114039145
113	0x3e10ce6e	0.14141247
114	0x3d2ef1f0	0.0427112
115	0x3d1a4631	0.037664596
116	0x3cd047b3	0.025424814
117	0xbce2b1e4	-0.027672715
118	0x3ca88b4a	0.02057423
119	0x3d2b9237	0.04188749
120	0x3b8f7d3d	0.0043789432
121	0x3ccf5ff2	0.025314305
122	0xbd1aa920	-0.037758946
123	0xbd858e20	-0.06521249
124	0xbd8be348	-0.0683046
125	0x3b90dfca	0.004421209
126	0x3d5bd3d5	0.053668816
127	0xbcae7e04	-0.021300323
128	0xbd6957be	-0.056968443
129	0xbe0b1993	-0.13583975
130	0xbd9af0e3	-0.07565477
131	0xbd665934	-0.056237414
132	0x3cdddb63	0.02708215
133	0xbbd1ee88	-0.006406609
134	0xbcc05073	-0.023475861
135	0xbda56efb	-0.080778085
136	0xbb588099	-0.0033035635
137	0xbd4665b2	-0.048436828
138	0x3d874fe5	0.066070355
139	0x3dc9b1e1	0.09848381
140	0x3d8b7ed7	0.06811302
141	0x3d369891	0.044579092
142	0x3dfb77db	0.1227872
143	0x3dd11b54	0.102102906
144	0xbd6ca048	-0.057770044
145	0x3ae06c09	0.0017122041
146	0xbcf00ea5	-0.029303858
147	0xbd305b66	-0.043055914
148	0xbc97633e	-0.01847994
149	0xbd126f96	-0.035750948
150	0xbcf66399	-0.030076789
151	0x3b45fd92	0.0030210954
152	0xbc5eddee	-0.013602717
153	0xbc5a5d2b	-0.013327877
154	0xbd9e4f02	-0.07729913
155	0xbe00fb66	-0.12595901
156	0xbcbf4353	-0.023347532
157	0xbd5188b5	-0.051155765
158	0xbd0aec85	-0.03391697
159	0x3c1a9a98	0.009436272
160	0x3d416aab	0.047220867
161	0xbdc09f0f	-0.09405338
162	0xbd52eeca	-0.05149726
163	0x3d191be1	0.037380103
164	0x3d221ad0	0.03957635
165	0x3db062f4	0.08612624
166	0x3d535906	0.05159857
167	0xbd9a66fa	-0.075391725
168	0xbd8f9bfc	-0.070121735
169	0xbce29c35	-0.027662376
170	0x3c3530cc	0.011058997
171	0x3d85def6	0.06536667
172	0x3db96ed6	0.090543434
173	0xbd0618ec	-0.03273861
174	0x3d8eaa44	0.06966069
175	0x3ae180de	0.0017204543
176	0x3d0ef8c6	0.034905218
177	0xbc64fd4f	-0.013976409
178	0x3cb8ae07	0.02254392
179	0x3b0e0ded	0.002167578
180	0xbc8e43eb	-0.01736637
181	0x3cb86bef	0.022512404
182	0x3d082cc9	0.033245835
183	0xbd861316	-0.06546609
184	0xbd2d3898	-0.0422903
185	0xba76ea96	-0.00094191113
186	0x3dda3806	0.10655217
187	0xbc0cb871	-0.008588896
188	0x3bb892f5	0.005632753
189	0x3d86f066	0.06588821
190	0xbc8df72f	-0.01732978
191	0x3d34c667	0.044134524
192	0x3ceff6f4	0.029292561
193	0x3c8d6699	0.017260836
194	0xbcf69d4a	-0.030104298
195	0x3bd18919	0.006394517
196	0xbb44a3c4	-0.0030004838
197	0xbb873564	-0.0041262377
198	0xbc78f524	-0.015195165
199	0xbde6402e	-0.1124271
200	0xbd5dac1c	-0.054119214
201	0xbd374552	-0.044743843
202	0xbd3fa851	-0.04679138
203	0xbd93c0d2	-0.07214512
204	0xbcb01961	-0.021496477
205	0xbd8181d0	-0.06323588
206	0xbd194070	-0.037414968
207	0xbd1149fc	-0.035470948
208	0x3d6edd10	0.05831629
209	0xbb64b071	-0.0034895206
210	0xbd8cd01a	-0.0687563
211	0x3af73d30	0.001886284
212	0xbcc90f2e	-0.024543371
213	0x3c055851	0.008138732
214	0x3c9fe2ed	0.019517386
215	0x3d845526	0.06461553
216	0x3d3798b9	0.044823382
217	0x3d33c94a	0.043893136
218	0x3d670c29	0.05640808
219	0x3d6fb44a	0.058521546
220	0x3d10a272	0.03531117
221	0x3d988325	0.07446889
222	0xbb0e5022	-0.0021715243
223	0x3d81a86f	0.06330954
224	0x3d979dd4	0.0740315
225	0xbc1da4c4	-0.009621803
226	0x3c32107e	0.01086819
227	0x3d3613d9	0.044452522
228	0xbca2f83c	-0.019893758
229	0xbc3d105c	-0.011539545
230	0x3c92da82	0.017926458
231	0xbcb80092	-0.02246121
232	0x3d879771	0.06620682
233	0xbd9cb1dc	-0.076511115
234	0x3c6bf8ae	0.014402552
235	0x3d815108	0.063142836
236	0xbc8f73b4	-0.017511226
237	0xbc333a29	-0.010939159
238	0x3bcc6873	0.0062380373
239	0xbd721f6b	-0.059111994
240	0x3bdc31ae	0.0067197895
241	0x3d0ca79f	0.034339543
242	0xbc5a950b	-0.013341199
243	0xbd0edd4a	-0.034879006
244	0xbd9f4e38	-0.07778591
245	0xbd9ca387	-0.07648378
246	0x3be85f94	0.007091472
247	0xbcb30e16	-0.021857303
248	0xba2df121	-0.0006635357
249	0xbddd63e3	-0.108100675
250	0xbdc7b886	-0.09751992
251	0xbc5cc35b	-0.013474311
252	0x3d2b359f	0.041799184
253	0xbcc5766a	-0.024104316
254	0xbd13f631	-0.03612346
255	0x3c963dc4	0.018339999

fc1.bias f4 [120]
0	0xbdaef29a	-0.08542366
1	0x3d973eaf	0.07385003
2	0xbc04529c	-0.008076336
3	0xbd11768a	-0.03551344
4	0x3c65daec	0.014029246
5	0x3dcbd285	0.09952263
6	0xbd0add9e	-0.033902757
7	0x3cd212a0	0.025643647
8	0x3e68ad71	0.22722413
9	0xbd2f3243	-0.042772543
10	0x3daa25fa	0.08308025
11	0xbd366fa1	-0.04454005
12	0xbc733f17	-0.014846585
13	0xbce9f566	-0.028559398
14	0xbe165347	-0.14680205
15	0xbd6031d2	-0.054735012
16	0xbc28c9f2	-0.010302054
17	0xbd27c3b9	-0.04095814
18	0xbc808f77	-0.01569341
19	0x3c865bb5	0.016401151
20	0xbd597330	-0.053088367
21	0xbd529873	-0.05141492
22	0x3db11178	0.0864591
23	0x3d3131fe	0.043260567
24	0x3d38026e	0.044924192
25	0x3c3c40eb	0.011490087
26	0xbd3118a0	-0.043236375
27	0xbc20d2ba	-0.009815866
28	0x3caefd04	0.021360882
29	0xbcc50a18	-0.024052665
30	0x3dfea13e	0.12433098
31	0xbcaf6c67	-0.021413995
32	0x3c03a177	0.008034102
33	0x3c67cd19	0.01414802
34	0xbd9e747e	-0.07737063
35	0xbccd5b3b	-0.025067916
36	0xbdc82585	-0.09772781
37	0xbdaf7221	-0.0856669
38	0x3dd4ad58	0.10384625
39	0x3e966e09	0.29380825
40	0x3e1a1f1d	0.15050931
41	0x3e495712	0.19662121
42	0xbdf1b731	-0.11802519
43	0x3d11e249	0.035616193
44	0x3cb511d4	0.022103228
45	0xbdcc8070	-0.09985435
46	0x3c9cb520	0.019129336
47	0xbd0ea287	-0.034822967
48	0x3e573e98	0.21019971
49	0xbe0ff7c5	-0.1405936
50	0x3b3c52f2	0.0028735963
51	0x3de2db36	0.110769674
52	0xbd19883d	-0.037483443
53	0xbd94e1ff	-0.07269668
54	0x3dea92ed	0.11453805
55	0x3e6055a9	0.21907677
56	0x3d8afafa	0.06786151
57	0x3d883ad3	0.06651845
58	0x3cbafb89	0.02282502
59	0x3de0d8d1	0.109788544
60	0x3d212f9f	0.039352056
61	0x3d4a9957	0.049462643
62	0x3e8bd3e7	0.27310106
63	0xbd65d56f	-0.05611175
64	0x3c92b33b	0.01790773
65	0xbdd24439	-0.10266919
66	0xba8c80a7	-0.0010719494
67	0x3d3f0960	0.0466398
68	0x3d9a7714	0.075422436
69	0x3cafc6e0	0.021457136
70	0xbc417261	-0.011807055
71	0x3d53b645	0.051687498
72	0x3e1d2d67	0.15349351
73	0x3d85c7f9	0.065322824
74	0xbdc6a954	-0.097002655
75	0x3d0c278c	0.034217402
76	0xbc7a066e	-0.015260322
77	0x3dbbbad5	0.09166495
78	0xbb600160	-0.0034180507
79	0xbd86f44e	-0.06589566
80	0xbd34b136	-0.044114314
81	0x3da30d37	0.07961505
82	0x3c5ba98c	0.013407122
83	0xbd441945	-0.04787566
84	0xbd514daa	-0.051099457
85	0x3d6b0d27	0.05738559
86	0x3dceff36	0.101072714
87	0xbca08564	-0.019594856
88	0x3e80f975	0.2519032
89	0x3d93d28c	0.07217893
90	0x3d1ecffc	0.038772568
91	0xbcc54350	-0.024079949
92	0x3e6ab29e	0.229197
93	0xbdbd202d	-0.09234653
94	0x3bb17014	0.005414972
95	0x3dec1201	0.115268715
96	0xbdecde7f	-0.11565875
97	0x3e9b1a1e	0.30293363
98	0xbd2414c2	-0.04005886
99	0x3d4f9566	0.050679587
100	0xbb908cbf	-0.0044113095
101	0xbd234988	-0.039865047
102	0x3cf9d213	0.030495679
103	0x3e5ce86a	0.21573034
104	0x3c08b0eb	0.008342962
105	0x3c0fb05c	0.008770075
106	0x3e1da653	0.15395479
107	0x3e30fa3d	0.17282958
108	0xbdd20990	-0.1025573
109	0x3cc30c79	0.023809658
110	0xbcf35f46	-0.029708516
111	0xbcf8142f	-0.030283062
112	0x3e24621e	0.16053054
113	0x3df8269f	0.121167414
114	0xbdc9dd16	-0.09856622
115	0xbb4e07d1	-0.0031437764
116	0x3da401b9	0.08008141
117	0x3c9ec3be	0.019380447
118	0x3caf4367	0.021394445
119	0xbc437138	-0.011928849

fc2.weight f4 [84, 120]
0	0xbd1105bf	-0.03540587
1	0xbbfbd972	-0.0076858336
2	0xbba63cc8	-0.0050731637
3	0x3dc6d927	0.09709387
4	0x3d86c4f4	0.065805346
5	0x3cd7a550	0.026323944
6	0x3dc27780	0.09495449
7	0xbbc70d2d	-0.0060745687
8	0xbd132c2f	-0.03593081
9	0x3db5e702	0.08881952
10	0xbdaabcd0	-0.083367944
11	0xbdcbbb6b	-0.099478565
12	0x3de27fa6	0.11059503
13	0xbe15c9a0	-0.14627695
14	0xbc2e6fda	-0.010646785
15	0xbd0380e2	-0.032105334
16	0xbdddb713	-0.10825934
17	0x3cc298ba	0.023754466
18	0x3d16fc83	0.036861908
19	0x3d8c1155	0.06839243
20	0xbd69125f	-0.056902286
21	0x3db0dd03	0.08635905
22	0xbdc09a06	-0.09404378
23	0xbd6f75e2	-0.05846203
24	0x3dee2687	0.11628442
25	0xbc825da5	-0.015913794
26	0xbd52969e	-0.05141317
27	0x3bb7c5f9	0.005608317
28	0xbdeda32c	-0.11603388
29	0x3cd7406f	0.026275842
30	0xbe23bb0f	-0.15989326
31	0xbd2293fa	-0.039691903
32	0x3b2af24c	0.0026084362
33	0xbcd81668	-0.026377872
34	0xbb97e027	-0.0046348753
35	0xbe0ba907	-0.13638698
36	0x3d2507cb	0.040290635
37	0x3d2a75fe	0.041616432
38	0x3b5722d3	0.0032827153
39	0x3cb939f0	0.022610635
40	0x3c3c600b	0.011497508
41	0xbdf53abf	-0.119740956
42	0xbd37b1a7	-0.044847157
43	0x3dc31467	0.09525376
44	0x3d6b3039	0.057419036
45	0x3e0aa4f3	0.13539486
46	0x3d0a9d67	0.033841517
47	0x3cc912d1	0.024545105
48	0xbc975449	-0.018472807
49	0x3e63866d	0.22219248
50	0xbd4a4804	-0.049385086
51	0x3ce1a1de	0.027543005
52	0x3de0df47	0.10980087
53	0xbdaf8454	-0.085701615
54	0x3d0d7ff6	0.03454586
55	0xbd434bfa	-0.04767988
56	0x3da9f066	0.082978055
57	0x3d4144b4	0.04718466
58	0x3dddc2b5	0.10828153
59	0xbe4d7d11	-0.2006724
60	0x3db30cfe	0.087427124
61	0xbde5dd19	-0.11223812
62	0xbe117dd7	-0.1420816
63	0xbd57c293	-0.052675795
64	0xbdbce09a	-0.09222527
65	0xbd2f2e20	-0.042768598
66	0xbd8e857c	-0.06959054
67	0xbe0c20de	-0.13684413
68	0x3e124a18	0.14286077
69	0x3de60d50	0.11233008
70	0xbdea25d3	-0.11432996
71	0xbd7f4c08	-0.06232837
72	0x3d1d93aa	0.0384709
73	0x3d6ac4c6	0.057316564
74	0x3d0298a5	0.031883854
75	0x3cfcad1e	0.030844267
76	0xbd105b3f	-0.03524327
77	0x3d96674e	0.073439226
78	0xbcc962a2	-0.024583165
79	0x3d3bb8a4	0.045830384
80	0x3e243525	0.16035898
81	0xbe5d27f6	-0.21597275
82	0x3dc453e6	0.09586315
83	0x3db80ff5	0.089874186
84	0xbd9ad7a9	-0.07560665
85	0x3dcaa095	0.0989391
86	0xbd2acdc6	-0.041700147
87	0xbdf4b1cd	-0.11947975
88	0xbd913587	-0.07090288
89	0xbc7626e6	-0.015023923
90	0xbbb98324	-0.005661385
91	0xbb933c48	-0.00449327
92	0xbd1a1529	-0.037617836
93	0x3df24531	0.118296035
94	0x3cc808e9	0.024418311
95	0xbdebbc17	-0.11510485
96	0x3d0b39c9	0.033990655
97	0xbd31c4ff	-0.04340076
98	0xbb270f53	-0.0025491312
99	0x3cbc4b4e	0.022985127
100	0xbd20d091	-0.039261404
101	0x3dcb8f11	0.09939397
102	0x3e1ea062	0.15490869
103	0x3e201045	0.15631206
104	0xbe07d291	-0.13263918
105	0xbc3ee8eb	-0.011652212
106	0x3d654655	0.055975277
107	0x3d0f38e3	0.03496636
108	0xbd25b8d3	-0.040459465
109	0x3cdfc920	0.027317584
110	0x3dc4e0d9	0.09613199
111	0x3d449270	0.047991216
112	0xbe18c61e	-0.14919326
113	0x3d36f3f9	0.044666264
114	0xbd52b786	-0.051444553
115	0xbddbc8fa	-0.107316926
116	0x3da6c0f8	0.081422746
117	0xbc3781bf	-0.0112003675
118	0xbd19db21	-0.037562493
119	0x3d0532f4	0.032519296
120	0x3d9e7fde	0.077392325
121	0x3ce0692d	0.027393902
122	0x3d74194a	0.05959443
123	0xbc9e5b82	-0.019330744
124	0x3d3c00e8	0.0458993
125	0xbd8238f8	-0.06358522
126	0xbc750b0e	-0.014956249
127	0xbad1ce57	-0.0016006929
128	0xbce3340b	-0.027734777
129	0xbd0ec08e	-0.034851603
130	0xbd82289a	-0.063554004
131	0xbb75c07a	-0.0037498758
132	0xbdb2ba09	-0.0872689
133	0xbde0a0a7	-0.10968142
134	0xbd3b0fb4	-0.045669273
135	0xbd792213	-0.06082351
136	0x3d835e22	0.06414439
137	0x3d067bf1	0.032833043
138	0xbd1226fd	-0.035681713
139	0x3d215572	0.039388128
140	0x3e01d5ca	0.1267921
141	0x3cba3c7a	0.022733916
142	0xbd5fac57	-0.054607715
143	0xbd1a8fe0	-0.037734866
144	0x3e102afa	0.14078894
145	0xbcf78c20	-0.030218184
146	0xbc70053d	-0.014649686
147	0xbdc00d22	-0.09377505
148	0x3d4da3a0	0.050204873
149	0x3de82b3c	0.11336371
150	0x3dacb8ab	0.0843366
151	0x3d68a95c	0.05680214
152	0x3d759a88	0.059961826
153	0xbce1196e	-0.027477946
154	0xbd812d03	-0.063074134
155	0xbcbfffb5	-0.02343736
156	0x3c6b3d4c	0.014357876
157	0xbc08ff1a	-0.008361602
158	0x3b67722a	0.003531585
159	0xbd48c4ea	-0.049015917
160	0xbd2ecb0e	-0.042674117
161	0xbd18ce39	-0.037306044
162	0xbc84bf3e	-0.016204473
163	0xbd4bf80e	-0.04979711
164	0x3cc6205b	0.02418535
165	0xbd0c2f37	-0.034224715
166	0x3c150ccd	0.00909729
167	0x3dcc4da5	0.09975747
168	0x3c6ad694	0.014333386
169	0xbdcdd883	-0.10051062
170	0x3c74b60c	0.0149359815
171	0xbd538c86	-0.051647685
172	0xbce346ba	-0.027743686
173	0x3dc54d64	0.09633902
174	0x3d036e36	0.032087527
175	0xbd4f7e41	-0.050657514
176	0x3c9a6218	0.018845603
177	0x3c213b4d	0.009840799
178	0xbaf1b137	-0.0018439655
179	0xbd466683	-0.048437607
180	0xbd9c0627	-0.07618361
181	0x3dde0b59	0.10842008
182	0xbc4168d8	-0.011804782
183	0x3d797464	0.060902014
184	0x3d2706d5	0.040778
185	0xbcc8bdf6	-0.024504643
186	0xbd715d30	-0.05892676
187	0x3db56525	0.088571824
188	0xbcd42377	-0.025895817
189	0xbdf2ec4d	-0.11861477
190	0x3dbe606d	0.092957355
191	0xbda5672f	-0.08076321
192	0x3cece1fa	0.028916348
193	0xbd7e2f1b	-0.062056642
194	0xbdcff11e	-0.10153411
195	0x3d1f143b	0.038837653
196	0x3d754345	0.059878606
197	0xbc03c661	-0.008042903
198	0xbd69ff52	-0.057128258
199	0x3c0320d8	0.008003436
200	0x3d8a327c	0.067479104
201	0x3d41de50	0.047331154
202	0xbdabed45	-0.08394865
203	0xbc1e07aa	-0.009645382
204	0xbd749284	-0.05971004
205	0x3d286586	0.041112445
206	0x3df93818	0.12168902
207	0x3cef9fc3	0.029250985
208	0x3ca32e46	0.019919526
209	0xbd79de93	-0.06100328
210	0x3d012c44	0.031536356
211	0x3d57f210	0.052721083
212	0xbce80b99	-0.028325843
213	0xbd131fe0	-0.03591907
214	0x3d2cd2de	0.042193286
215	0x3bca85bf	0.0061804946
216	0xba1201dc	-0.0005569735
217	0xbc29a367	-0.0103539
218	0x3d70ac99	0.058758352
219	0x3d436782	0.047706135
220	0xbda4fd00	-0.080560684
221	0x3cce2b8e	0.025167253
222	0xbd9df968	-0.07713586
223	0x3d8bf46b	0.068337284
224	0xbd67d728	-0.056601673
225	0xbbaa9aba	-0.005206433
226	0x3cd5b6a7	0.026088072
227	0xbda98e1c	-0.08279058
228	0xbe088f5f	-0.13335942
229	0xbdbcda55	-0.09221331
230	0xbdaf53b4	-0.08560887
231	0xbdcf6bf6	-0.10128014
232	0x3b45b5b5	0.003016812
233	0xbbc39257	-0.005968373
234	0xbd8b65c8	-0.068065226
235	0xbc65ba2a	-0.014021436
236	0xbdb47f50	-0.088133454
237	0x3c8ab5ee	0.016932454
238	0xbd986902	-0.07441904
239	0x3cde24e8	0.027117208
240	0xbdf11896	-0.117722675
241	0x3b9e6988	0.0048343576
242	0x3e1554f9	0.14583196
243	0xbdaa25fa	-0.08308025
244	0x3dd4ebe2	0.103965536
245	0x3d9d44fc	0.07679173
246	0xbd073fce	-0.033019833
247	0xbe38bb6f	-0.1804025
248	0xbd241c29	-0.040065918
249	0xbc1f9e34	-0.009742308
250	0xbe03ec49	-0.12883104
251	0xbd88092a	-0.06642373
252	0x3d17054a	0.03687028
253	0xbe17ff57	-0.14843498
254	0xbb9066c6	-0.004406783
255	0xbd0ae7eb	-0.03391258

fc2.bias f4 [84]
0	0x3ccfda75	0.025372723
1	0x3e053bd5	0.13011105
2	0x3e9cbf55	0.30614725
3	0x3d9cf13d	0.076632
4	0x3c675965	0.014120434
5	0x3e18d041	0.14923193
6	0xbdc02ed7	-0.09383934
7	0x3d9e35aa	0.07725079
8	0x3d10403e	0.035217516
9	0x3cdaec9b	0.02672415
10	0xbe2e93e3	-0.17048602
11	0xbd813373	-0.06308641
12	0x3d605fd3	0.054778885
13	0x3e79b42b	0.24385135
14	0x3e777a6a	0.24167791
15	0x3e7edde2	0.24889329
16	0x3d416a0c	0.047220275
17	0x3da29bd4	0.07939878
18	0xbb0ff66b	-0.0021966945
19	0x3c472d95	0.012156864
20	0x3e84472a	0.25835544
21	0xbdbf64d4	-0.09345403
22	0xbc302855	-0.010751803
23	0xbd7d36e9	-0.061819945
24	0x3d0c6e01	0.034284595
25	0x3dda30c7	0.10653835
26	0xbcbdbd8a	-0.023161668
27	0xbe571fca	-0.2100822
28	0x3ce41169	0.027840333
29	0xbe24789f	-0.16061638
30	0xbdd5e4cf	-0.104440324
31	0xbce0e06a	-0.027450759
32	0x3ac14a3c	0.0014746855
33	0x3dcaa776	0.09895222
34	0x3d39703d	0.045273054
35	0xbde5dddd	-0.11223958
36	0xbe082dc4	-0.13298708
37	0x3d912245	0.070866145
38	0x3f063e10	0.5243845
39	0x3d3033f2	0.04301829
40	0x3e669f21	0.2252164
41	0xbe1c5bdc	-0.15269417
42	0x3d819862	0.06327893
43	0x3deeccc9	0.116601534
44	0x3eddfd1c	0.4335717
45	0x3dfb0a85	0.12257866
46	0xbd026deb	-0.031843107
47	0xbd78c394	-0.060733393
48	0x3e9f634e	0.3113045
49	0xbd3b2b02	-0.045695312
50	0x3e249545	0.16072567
51	0x3d6540cf	0.05597001
52	0x3d3f054c	0.04663591
53	0xbce4da8b	-0.02793624
54	0xbd64a3df	-0.055820342
55	0xbd9f735e	-0.077856764
56	0x3e7711d9	0.24127902
57	0xbda299aa	-0.07939465
58	0xbda440d6	-0.08020179
59	0xbe25c2d1	-0.16187598
60	0x3e222ecc	0.15838164
61	0x3ea9deec	0.33177888
62	0x3ebca6ae	0.36845917
63	0x3ea9020b	0.3300937
64	0xbd5dfb5c	-0.054194793
65	0x3e0fd846	0.14047346
66	0x3db603cd	0.08887444
67	0xbe459f80	-0.19299126
68	0x3e840349	0.25783756
69	0x3ce24e9b	0.027625373
70	0x3e0d16ca	0.13778225
71	0x3ed96514	0.4245993
72	0xbd5d3516	-0.054005705
73	0xbe1ef1e8	-0.15521967
74	0x3e333944	0.17502314
75	0x3dbdc388	0.0926581
76	0xbe73ecc0	-0.23820782
77	0xbc6b8c7e	-0.014376758
78	0x3e884288	0.2661326
79	0x3da26de3	0.079311155
80	0xbd86750f	-0.06565296
81	0x3c93847c	0.01800751
82	0xbdcb8413	-0.099373005
83	0xbda4d327	-0.080480866

fc3.weight f4 [10, 84]
0	0x3e25389b	0.16134875
1	0xbc8cf9a3	-0.01720888
2	0xbe45fbf1	-0.1933439
3	0xbb8518d4	-0.0040617976
4	0x3e8bb532	0.2728668
5	0x3e95e099	0.29272917
6	0xbdba9f02	-0.091123596
7	0xbe2443bf	-0.16041468
8	0xbe1c5d3c	-0.15269941
9	0xbe55fd27	-0.20897351
10	0xbe45f79a	-0.19332734
11	0x3edb320f	0.4281163
12	0x3e242c91	0.16032626
13	0x3e8c7e06	0.27439898
14	0xbe2b1628	-0.1670767
15	0xbe410401	-0.18849184
16	0x3e602eec	0.218929
17	0x3b5ab40c	0.0033371476
18	0x3dc4926f	0.095982425
19	0x3da4319a	0.08017273
20	0x3e3821c6	0.17981634
21	0x3d014add	0.031565536
22	0xbab1f664	-0.0013577458
23	0x3c9a173d	0.018809909
24	0x3d70f82f	0.058830436
25	0xbe63e72e	-0.22256157
26	0xbdb2f7ee	-0.08738695
27	0xbdab8cea	-0.083764866
28	0xbcaa346a	-0.020776946
29	0xbe183112	-0.14862469
30	0x3dec147a	0.11527343
31	0x3ed0ef8a	0.40807754
32	0x3cadb400	0.021203995
33	0x3ea41577	0.32047626
34	0xbe4f3c45	-0.20237835
35	0x3e27d589	0.16390051
36	0x3dd5a069	0.104309864
37	0x3d7912c4	0.060808912
38	0xbe1150b1	-0.14190938
39	0xbe130566	-0.14357528
40	0x3d5b8c8b	0.05360083
41	0x3e9956ee	0.29949135
42	0x3d2f1271	0.042742196
43	0xbc1d7a32	-0.009611653
44	0xbeaa5d1f	-0.3327417
45	0x3e745f34	0.23864442
46	0x3c04fab6	0.008116415
47	0xbcacac82	-0.021078352
48	0xbe103dab	-0.14086024
49	0xbc992001	-0.018692018
50	0xbcd7b2f2	-0.026330445
51	0xbdf51c2d	-0.11968265
52	0xbdf0c406	-0.117561385
53	0x3ecefd4e	0.4042763
54	0x3e8bf763	0.2733718
55	0x3e13240c	0.1436922
56	0xbe25c7d6	-0.16189513
57	0xbd6efbde	-0.058345668
58	0xbe791279	-0.24323453
59	0xbe73f86e	-0.23825237
60	0x3d14e26c	0.036348745
61	0xbe8af0da	-0.2713688
62	0xbd975dd0	-0.0739094
63	0x3d7e4fff	0.06208801
64	0x3d365d67	0.04452267
65	0xbca2e543	-0.019884711
66	0xbdba164c	-0.09086284
67	0x3ea4497a	0.32087308
68	0xbe0b2221	-0.13587238
69	0x3e7090dc	0.2349276
70	0x3e8997c7	0.2687361
71	0xbe8c1671	-0.2736087
72	0x3c8dc7b4	0.01730714
73	0xbe4a9b65	-0.19785841
74	0x3e1189d9	0.14212741
75	0x3e55edc9	0.20891489
76	0x3daa7357	0.083227806
77	0x3b382537	0.0028098354
78	0xbe9f2e45	-0.31089988
79	0xbec399eb	-0.38203368
80	0xbe0da9d5	-0.13834317
81	0x3ee4c700	0.44683075
82	0x3e110dc1	0.14165403
83	0xbdc4ab92	-0.09603037
84	0xbe58ddb8	-0.21178329
85	0xbdd686cf	-0.104749314
86	0xbef91c0e	-0.48654217
87	0xbe4099a7	-0.18808614
88	0xbd94d3b4	-0.07266942
89	0x3d64337a	0.055713154
90	0xbd8c520f	-0.06851589
91	0xbc8a5ee7	-0.016890956
92	0x3d4cb8dd	0.049980987
93	0x3d820f65	0.063505925
94	0x3e88583d	0.2662982
95	0x3e26a412	0.16273525
96	0x3df70489	0.12061412
97	0xbd1effca	-0.03881816
98	0xbeaee985	-0.34162536
99	0xbe872647	-0.2639639
100	0x3e11a939	0.1422471
101	0x3e2c8bd7	0.1685022
102	0xbdde2299	-0.10846443
103	0x3db9b46c	0.09067616
104	0xbebade91	-0.3649793
105	0xbe383cce	-0.17991945
106	0xbcb4cfa7	-0.022071673
107	0xbe1215db	-0.1426615
108	0xbe05fc51	-0.13084532
109	0x3e607b6b	0.2192208
110	0xbda14780	-0.07874966
111	0x3ea7e586	0.327923
112	0xbe53378e	-0.20626661
113	0xbdf24bd7	-0.118308716
114	0xbe972954	-0.29523718
115	0xbd01872d	-0.031623054
116	0x3dba7e47	0.09106117
117	0xbe88cdf2	-0.26719624
118	0x3edd470d	0.4321827
119	0x3e0ff79d	0.140593
120	0xbbab8565	-0.0052344077
121	0xbe0b8774	-0.1362589
122	0x3d97c57c	0.07410714
123	0x3e7480b4	0.23877221
124	0xbe82465b	-0.25444302
125	0xbeb0246c	-0.34402788
126	0x3e1d906d	0.15387125
127	0x3def823c	0.11694762
128	0xbece16d8	-0.40251803
129	0x3b2443e4	0.002506488
130	0xbde5eb68	-0.11226541
131	0x3da15ebb	0.078793965
132	0xbd8d56ae	-0.069012985
133	0x3e0744a1	0.13209774
134	0x3e297a5b	0.16550581
135	0x3e32bbcf	0.17454456
136	0xbd31318f	-0.043260153
137	0x3ed6eaf4	0.4197613
138	0xbdf6a9e8	-0.12044126
139	0xbddeda04	-0.10881427
140	0x3d1d2694	0.03836687
141	0x3d09dbf5	0.033657033
142	0x3eb51815	0.35369936
143	0x3e8daa37	0.27668926
144	0xbe318703	-0.17336659
145	0xbe977c6d	-0.29587117
146	0xbe48bc68	-0.19603121
147	0xbd6c78ca	-0.05773238
148	0x3d454af5	0.048167188
149	0xbe92a569	-0.28641823
150	0x3caf6fad	0.021415556
151	0x3e01cba8	0.12675345
152	0xbe93aa3b	-0.28840813
153	0xbe80fdb4	-0.2519356
154	0x3c8654ca	0.016397852
155	0xbe92e43f	-0.28689763
156	0xbe308d3e	-0.1724138
157	0x3eb0d524	0.34537613
158	0x3de59df2	0.11211766
159	0xbe835616	-0.25651616
160	0x3e4fd460	0.20295858
161	0xbce8111c	-0.02832847
162	0x3e345d21	0.17613651
163	0xbe2f265f	-0.17104481
164	0x3dff8041	0.12475634
165	0xbe3a3b1c	-0.18186611
166	0xbcafccd9	-0.021459984
167	0x3e6395cc	0.22225112
168	0xbe9c1a2e	-0.30488724
169	0x3e263a02	0.16233066
170	0x3ec2a6c8	0.3801787
171	0x3de0e492	0.10981096
172	0xbd80d490	-0.06290543
173	0xbb27cfd6	-0.0025606058
174	0xbdf2a72e	-0.11848293
175	0x3c2f4e8c	0.010699879
176	0x3ec4768d	0.38371697
177	0x3e4c8443	0.19972329
178	0xbb371d90	-0.0027941205
179	0xbe5f5f47	-0.21813689
180	0xbdf9806b	-0.12182697
181	0x3d9bf021	0.0761416
182	0x3dac0555	0.083994545
183	0x3e0ae2dd	0.13563104
184	0xbe2cbaba	-0.16868106
185	0xbe027f4b	-0.12743871
186	0x3e69b11d	0.2282147
187	0xbdf7add5	-0.12093703
188	0xbdcec218	-0.10095614
189	0xbe044652	-0.1291745
190	0xbd6b59ae	-0.057458572
191	0x3d0b7285	0.03404476
192	0x3ea4511f	0.3209314
193	0x3d6e5124	0.05818285
194	0x3e126751	0.14297225
195	0xbd03ae64	-0.032148734
196	0xbe383620	-0.17989397
197	0xbd74152e	-0.05959051
198	0xbd1476a8	-0.036245972
199	0x3e58fb4f	0.21189617
200	0xbea91023	-0.33020124
201	0x3ea1ddaf	0.31614444
202	0xbe19e8b2	-0.15030172
203	0xbd6e60cc	-0.05819778
204	0x3d849725	0.06474141
205	0x3e2b37aa	0.16720453
206	0x3e59bbf4	0.21263105
207	0xbe253318	-0.16132772
208	0x3f0e52f9	0.55595356
209	0x3d7808a4	0.060555115
210	0x3c200688	0.009767182
211	0xbe9131c6	-0.28358287
212	0x3e37bd78	0.1794337
213	0xbc6d509c	-0.014484551
214	0xbd7085f0	-0.058721483
215	0x3eeb1da6	0.45921057
216	0xbdad8165	-0.08471946
217	0xbebad779	-0.36492518
218	0xbda8ecee	-0.08248316
219	0xbda5a67d	-0.08088396
220	0x3e5224a5	0.20521791
221	0xbe3c3b6c	-0.18382043
222	0x3edd6bb7	0.43246242
223	0x3e1f4aec	0.15555924
224	0x3e55b85a	0.20871106
225	0xbcc54f3c	-0.024085633
226	0xbdf04e18	-0.11733645
227	0xbc5e34ce	-0.013562394
228	0x3e71d813	0.23617582
229	0xbe6f84c1	-0.23390485
230	0x3dabdd1e	0.08391784
231	0x3eeec34b	0.46633372
232	0xbecadfd1	-0.39623883
233	0x3e75d2e4	0.2400623
234	0x3d8af42a	0.06784852
235	0x3e0d6435	0.13807757
236	0x3d754c74	0.059887365
237	0x3d7fc393	0.062442373
238	0x3e797396	0.24360499
239	0xbd53674d	-0.051612187
240	0x3e31a619	0.17348517
241	0x3da2338d	0.07919989
242	0x3d94bb02	0.072622314
243	0x3e2c99b5	0.1685551
244	0xbe74c644	-0.23903757
245	0x3e2113aa	0.15730157
246	0xbe2ecb01	-0.17069627
247	0x3ddcb941	0.10777522
248	0x3cae7045	0.021293769
249	0x3d0b142c	0.033954784
250	0xbd5f2bf0	-0.05448526
251	0xbd9d0ffc	-0.076690644
252	0x3dcb6c92	0.099328175
253	0xbe3f0459	-0.18654002
254	0x3e62f02d	0.22161932
255	0x3e43b2f3	0.19111232

fc3.bias f4 [10]
0	0xbedc672e	-0.4304747
1	0xbebc68ea	-0.36798793
2	0x3e07f2f6	0.13276276
3	0x3da0b0cc	0.07846221
4	0x3f2e9cdb	0.6820809
5	0xbec79cb5	-0.38986745
6	0x3f1e3702	0.61802685
7	0xbe69cc49	-0.22831835
8	0x3d77eb86	0.060527347
9	0xbe95e9e6	-0.29280013
